Reinforcement Learning/homework/作业二_FightingGame/格斗游戏大作业_提交/RL_fightinggame/checkpoints/DQN/ZEN/best-262.pth (torch, 120274 bytes, 6 tensors)

fc1.weight f4 [128, 144]
00000000: 099a f0be cfba 58bf 647f aebd b639 3e3e
00000010: afce 603e 567c 0ebe 7048 2d3d a723 66be
00000020: ed21 15bd b881 8fbd 8ac7 29be adbb fb3d
00000030: bc4a 853e b8d6 5cbf d378 f7be d6ab 86be
00000040: 5bd8 843e b22c 403e b1aa 913e 183d 81be
00000050: e522 27bd c4e3 6e3e a15e beba a059 0b3c
00000060: f8f3 67bd 291c e0bd cbb3 1e3d 3f8f 80be
00000070: 9d6f 993d 4a3a 6c3d 5396 8fbc 046f c0be
00000080: 9358 b6be 0d59 2f3e 9e9e 19be 4c8b 93bf
00000090: 5ad7 01bf 281b 28be fd2b 333e f1bd 323e
000000a0: 4113 67bf b6f9 02bf 7d89 dc3d 2012 e13e
000000b0: 28e7 5cbd 87dc e8be 556c 3fbe 27c4 febd
000000c0: e843 343e 7e24 cebd a0c9 15be 03f4 d93b
000000d0: fb98 d73e 2c72 a2bf 413e aa3d bf70 ddbe
000000e0: d184 dcbe 7fc5 88bd 8375 f03e 6975 bc3d
000000f0: 4d1f 733e 737b e2be 0293 05be c4ff d4be
00000100: 11ef fabc 4250 bcbe 8801 59bc 6e5d cabe
00000110: 48b8 64bd 328a f3be debb a23e 0021 e9bd
00000120: d58b e93b b37c 70bd a3e9 e5bc a07f 033b
00000130: 6a3b fb3e 12a8 d6bd 6b14 91bd 9a50 d3be
00000140: 4d61 593f d6b0 86bb 7759 90be 5752 2abd
00000150: 7e52 f2be 8c58 1bbd 96c5 a63d 1928 753c
00000160: 8f50 debd 56f2 6d3d 88ff 793c f69b d7be
00000170: cc17 933d 140a 883c 26c4 58be 1663 97be
00000180: 2dec 21bd 6b23 7b3d e4f7 34bf 190b d23d
00000190: a654 18be 0d08 34be f15b ddbe 0355 603b
000001a0: d856 c73e 940e e93e 3897 9cbe 68fe 73be
000001b0: def9 86be eca3 52be 0d23 6abf 1836 91be
000001c0: 7a33 4bbe 6fc9 64be 9056 45bd 6895 aa3e
000001d0: 4ffc 813c db3e 3b3e 02dd fbbe 4227 7cbe
000001e0: e509 15be 38ab 2b3e d246 843d 1a40 09bf
000001f0: 13c6 f8be 77ab 703e 7a44 743d 78ad d0be
00000200: 68ea 93bd c7c9 d2bd da0f b53e 454a c13e
00000210: 5f4c c63e d024 353f 9cf6 debc 6914 313e
00000220: bf40 1b3e a0fc 4e3e ae45 003f 87c3 153f
00000230: 9a6b 7cbe 35ab 76be b0aa 8bbe 2aa5 adbe
00000240: fa08 0e3f 3f8a 883e 0c5e ecbd f051 19bf
00000250: f9da 69bd ee20 99bb 3cf5 28bd f6ca 6fbe
00000260: 7815 1dbe 2656 6b3d 7547 1abe 79a3 cbbe
00000270: 4f8d 91be 422f 7ebe 281f c6bc cd4b 3ebe
00000280: a5fe dabe 65a0 c2bd b8f2 103e 1c00 b9bd
00000290: dc68 b53e 928f 813e 33a5 9fbd b227 94be
000002a0: 96d3 00bd 6ccf febd 93b9 16bf fd23 9abe
000002b0: 2efa 6a3d a092 eabc 2d8d 2ebe 982c cebe
000002c0: 8b4b 813e 1747 e5be 5496 d43e 9ff0 33bf
000002d0: 6708 51be 5e5d 963c 4d18 a63d ff1e 603e
000002e0: 3cf0 133f 8ba9 cbbe 7837 7d3d 7a4d 823e
000002f0: 455c 9fbe cfcf dcbe 81dd e83d 07a2 033d
00000300: 0a83 adbe f22f e9be eb44 cc3d 2b33 0bbf
00000310: 9d2b a43d 6c23 2cbf 8494 dabe 490b 523d
00000320: b5b3 063d fccf 9dbe c3fd 083f 9d21 43bf
00000330: 84b4 403e d185 75be 4d70 7cbe 10e0 b3be
00000340: 96dd a63e 36c8 1cbe 888e d53e b5f9 40bf
00000350: 8968 5abd 1378 93be ce2c 653f de7c 663d
00000360: 2841 4ebf 475e fd3d 2adb 65be 8e09 763d
00000370: 6ec3 1cbf cef8 55bc a844 c0be 43c4 ddbd
00000380: 5527 563c cd42 6dbd 80bf cdbe 7c02 b93e
00000390: ec5c 523c 6282 1bbe 84f7 243d 0da7 c3be
000003a0: 124f 243d aafc 0f3d 1084 a4bb 33f6 d63d
000003b0: 4b2a b6be c301 92bd 6c0b 1cbe e93a b1be
000003c0: d31c a4bd a2d8 a9bd 7e2f 0d3c bfff 27bd
000003d0: 4b68 40bb bc70 7e3d b260 1e3e 76ba 39bf
000003e0: 22bb dfbe f7fb 9fbd ce9b d53e dcac 3ebe
000003f0: c9be 35be 1914 e43e 543a c6be 2504 babe
-0.4699252 -0.8466005 -0.085203916 0.18576702 0.21953844 -0.13914618 0.04230541 -0.22474538
-0.036409307 -0.07007164 -0.16580024 0.12291656 0.2603358 -0.86265135 -0.4833437 -0.26302975
0.25946316 0.1876705 0.2845054 -0.25241923 -0.040804762 0.23329073 -0.0014524051 0.008505255
-0.05662915 -0.10942871 0.038745683 -0.25109288 0.07491992 0.057672776 -0.017527735 -0.37584698
-0.35614452 0.17123814 -0.15001914 -1.1526885 -0.50719225 -0.1641661 0.17497249 0.1745527
-0.90263754 -0.5116228 0.10768411 0.4395914 -0.053931385 -0.4548075 -0.18693669 -0.12439757
0.17604029 -0.10065554 -0.14627695 0.006651403 0.42108902 -1.2691092 0.08312655 -0.4325008
-0.4307008 -0.066782944 0.46964654 0.09202082 0.23742409 -0.4423481 -0.1304436 -0.41601384
-0.030631574 -0.36779982 -0.013244994 -0.39524406 -0.055839807 -0.47566372 0.31783956 -0.113832474
0.007127265 -0.058712672 -0.028065508 0.0020065084 0.49068767 -0.104812756 -0.070839725 -0.41272432
0.84914094 -0.004110436 -0.28193256 -0.04158243 -0.47328562 -0.03792624 0.08143155 0.014963173
-0.10855209 0.058092438 0.015258677 -0.42111176 0.07182273 0.016606368 -0.21168575 -0.29567784
-0.039531875 0.061313074 -0.7069075 0.10256023 -0.14876041 -0.17581196 -0.43234208 0.0034230358
0.38933444 0.45518935 -0.3058412 -0.23827517 -0.2636251 -0.20570344 -0.91459733 -0.28361583
-0.19843856 -0.22342466 -0.048178256 0.33317113 0.01586738 0.18285696 -0.49192053 -0.2462435
-0.14554556 0.16764534 0.064588204 -0.53613436 -0.4858862 0.23502909 0.059635617 -0.40757346
-0.07222444 -0.10292392 0.35363656 0.37751976 0.38730142 0.70759296 -0.027217202 0.17292942
0.15161417 0.20213556 0.5010632 0.58501476 -0.24650422 -0.24088748 -0.27278662 -0.33915073
0.5548245 0.26667973 -0.115413755 -0.5989065 -0.057093594 -0.004673115 -0.0412495 -0.23417267
-0.15340221 0.057455204 -0.15066321 -0.39773157 -0.28428122 -0.24822715 -0.024184778 -0.18583603
-0.42772403 -0.09503249 0.1415509 -0.09033224 0.35431564 0.25304848 -0.07795181 -0.28936535
-0.031451784 -0.12441906 -0.58876914 -0.30105582 0.057367496 -0.02863437 -0.17046042 -0.40268397
0.25252947 -0.447808 0.4152094 -0.70289034 -0.20413361 0.018355068 0.08110104 0.21886824
0.57788444 -0.3977779 0.061820477 0.25449735 -0.31125084 -0.43127295 0.113703735 0.032136943
-0.33889037 -0.45544392 0.099740826 -0.5437495 0.08016131 -0.6724155 -0.42691433 0.051280294
0.032886226 -0.30822742 0.5351221 -0.76223165 0.18818861 -0.23976828 -0.24652214 -0.35131884
0.32590932 -0.1531075 0.41710305 -0.7538102 -0.05332235 -0.28802547 0.8952149 0.056271426
-0.8056817 0.123714976 -0.22446886 0.060067706 -0.612357 -0.013059808 -0.3755238 -0.108284496
0.013070901 -0.057925034 -0.40185165 0.36134708 0.012839537 -0.15186456 0.04027511 -0.38213387
0.04011447 0.03515307 -0.005020626 0.104961775 -0.35579142 -0.07129242 -0.15238732 -0.34615257
-0.0801331 -0.082932726 0.00861728 -0.041015383 -0.0029359038 0.06211923 0.15466574 -0.7255014
-0.43697459 -0.0781173 0.41720432 -0.18620628 -0.1774856 0.44546583 -0.38716376 -0.36331287

fc1.bias f4 [128]
00000000: 3013 51bd 1401 f0bd 80b7 11be fd39 933d
00000010: c6d5 88bc 8229 22be 6bc5 3fbe 6032 09bb
00000020: 35af 6c3c ef8e 5b3c 0ba8 dabd 3434 e6bc
00000030: 3403 20bd b195 ffbc 192d bcbd 1253 18be
00000040: f0c5 12be a6fc 89be 7b9e a13e f378 94be
00000050: 5a10 4fbe 6efc b13c 6ddc c1bc fa53 dc3d
00000060: 21e0 62bd 9f82 98bd c5f1 80be bf0a 85be
00000070: baa8 053e 9671 113e 66bc 37be 5e4e 3ebd
00000080: 7c79 44be 9b1b c9bc 2998 bebd f412 ccbd
00000090: 4bd9 253e bf3b 23be 6c23 d7bd 7184 23be
000000a0: 3781 ecbb 2612 03be df40 893e 4558 a5bd
000000b0: 12fc 1abe 34a1 183d 7476 febd fd25 c5bb
000000c0: e5c7 59bd 506b abbd 5a51 babc 48f7 95bd
000000d0: cb8f f73d 35a0 1dbe 64b9 acbc 5a1f 04be
000000e0: b09b 21b8 4f1d 44bd 01e5 5fbc 4323 6fbd
000000f0: aaa5 22be 9469 043e fc21 fabc 5074 44bd
00000100: 5fc8 49be ccdd ebbd 815f 4c3d 7cfd 94be
00000110: a1a5 97bd e546 38be 736a 9cbd f53a 21be
00000120: 31f4 8dbe 5928 7cbe 54b5 15be eb8c 133d
00000130: d72d d4bd a04b 3fbe 5e51 3bbd c694 fbbd
00000140: c31b 04be 6c87 febd 1b10 46be fcf3 60bd
00000150: 96a9 0ebe 77fa 08be 7b32 23be 780a a6be
00000160: 5f7a 15be c5e2 c4bd 353d 033d 2578 6b3b
00000170: 7709 7bbd 9bb6 6bbd 115a 84bd 0d3e 81be
00000180: 7dd2 15bd e998 3dbe 0482 023d 2302 0e3e
00000190: cbdc 30be 389c 1bbe 2b68 b2bd 86b4 433d
000001a0: 659e 133d de8d 1a3d fcbc 3bbd 5fae 06be
000001b0: 9898 8dbd 0594 74be 5ced 5a3e e92b 2c3e
000001c0: c9b3 75be e671 75be 22f4 8bbd 8781 753d
000001d0: d6fd 81bd 1697 373e 7691 adbc b3c0 bfbd
000001e0: 7b8a 323c 14a0 53be d093 c3bd 3775 50be
000001f0: d492 68be a45b 8d3d a500 18be 13f2 00bd
-0.05104369 -0.11718956 -0.14230156 0.07188795 -0.016703498 -0.15836146 -0.18727653 -0.0020934567
0.0144460695 0.013400777 -0.10676583 -0.028101064 -0.039065555 -0.031199308 -0.09188289 -0.14875439
-0.1433332 -0.26950568 0.31566224 -0.28998527 -0.20221081 0.021726813 -0.023664678 0.10758205
-0.055389527 -0.07446789 -0.25184456 -0.2598476 0.13052645 0.14203486 -0.17942962 -0.046461456
-0.19186968 -0.024549296 -0.09306366 -0.099645525 0.16196172 -0.1594076 -0.10504803 -0.15968491
-0.007217552 -0.12799892 0.26807305 -0.08073477 -0.1513522 0.03726311 -0.12424937 -0.0060164914
-0.05316915 -0.083700776 -0.02274387 -0.07322556 0.12087973 -0.15393145 -0.021084495 -0.12902585
-3.8530387e-05 -0.047879513 -0.013665439 -0.058383238 -0.15883508 0.129309 -0.030533783 -0.047962487
-0.19705342 -0.11516914 0.049895767 -0.29099643 -0.07404638 -0.17995794 -0.07637491 -0.15745147
-0.27725366 -0.24624766 -0.14619952 0.03602306 -0.10360306 -0.18681192 -0.045731895 -0.12284236
-0.12901215 -0.124281734 -0.19342081 -0.05492018 -0.1393188 -0.13376795 -0.15937226 -0.32429862
-0.14597462 -0.09613565 0.032040793 0.0035929766 -0.061288323 -0.057547193 -0.06462491 -0.25242653
-0.03657769 -0.18515362 0.031862274 0.13868003 -0.17271726 -0.15196311 -0.08711275 0.047779582
0.03603973 0.03773295 -0.045834526 -0.13152455 -0.069138706 -0.2388459 0.21379608 0.16813625
-0.23994364 -0.2396923 -0.06833674 0.05993798 -0.063472435 0.17928728 -0.021187525 -0.09362926
0.010897274 -0.20666534 -0.09549677 -0.20357214 -0.2271226 0.06902245 -0.14843996 -0.03148086

fc2.weight f4 [64, 128]
00000000: 3e0b 32bf dfcd 203f 32c2 cb3e 5b46 f03d
00000010: 73e9 093e 5e9c 333e d0af 9cbf f714 4b3e
00000020: 37ed 1d3e 28cf 093f c5df 98be 9c9d 373f
00000030: db1c b5bc a33b d4bf 8ec1 71be ffcb e43e
00000040: 249c 813d 1afe f83e 0802 27bf 778d 7a3e
00000050: efef 38be b772 093e 7bf0 e73e 3841 1a3f
00000060: 4314 d3be a36f 4cbe c30b f53e 0965 6dbe
00000070: 957a 043e ba2a c9bd fddd 9d3e a299 89be
00000080: b653 833f 9899 b53e 8a25 36bf b396 203d
00000090: 3710 aa3d 1229 74be b66e 78be c0d6 9a3e
000000a0: c6c6 193d 8ed5 adbd f88a febd 3753 353e
000000b0: 87a8 dcbb 7b57 c23d b9f3 713e 3a2b 04be
000000c0: 1e91 503e bf25 963e f089 0c3f 0c31 3fbf
000000d0: cdf1 92bd d246 a2bd 55f3 713d 5a48 48be
000000e0: 6665 fdbe e403 e63e 1011 743f 49c8 a4bf
000000f0: b76d e53c d4f0 2dbe 83b9 7dbf 5227 1d3f
00000100: 52d4 b2bd c5f5 b53e d373 5dbe 7900 a93d
00000110: 844f febe 368c 4a3d 85c7 dcbe 846b 56bd
00000120: 138c 493e 1ae0 23be b9aa 163e f1dd c03c
00000130: db95 f6bc 985a 663e 5c5c 263e 5325 e43e
00000140: f823 75bb ba00 623e 3ee9 1a3f 9325 f03c
00000150: 249d 48bc 3fb9 913e 5b64 863e 695f c7be
00000160: b595 983e 6c7e 033d 192d c13d 5617 0fbd
00000170: a74c 5fbe ec20 83be 1a0b 5abe 59fe 433d
00000180: b1b5 ae3c be85 90be f3f0 273e 3a78 26bf
00000190: 07d3 0d3f 7a9c 233d 2eb2 09be 478f 28be
000001a0: f02e 1abe 7fd1 a63e fdc7 85bf 3499 833e
000001b0: 7a15 163f a04a 253e 811d 4abf 54e1 9fbf
000001c0: f0e1 f6be 7f2f b0be 23dc debe d19a 1c3e
000001d0: 56b5 16bf 7b9b a1be 5b86 bebe 72ac eebe
000001e0: 6ed2 82be 8f31 e63d edb6 003f 883b c73d
000001f0: 289f 7f3d 80a4 34bf 5c1e 0fbe 810c 103f
00000200: cff2 8d3e 3717 283f f900 5dbe bc93 debd
00000210: 8cb4 74be c787 16be cdeb 09bf ace9 62be
00000220: 46dd b7bd 938e 18bd 467b b6bd 882f 0abf
00000230: 4836 153f 0db9 113f ffcb 0fbe 9985 623e
00000240: 235c 733b 53ac 5d3e 8b5f 75be 4c3c c33d
00000250: 2a9b 81be bc3e 44bf a5bf c6bd f61c 14bf
00000260: 233f ebbc ba21 3cbd dace 7d3e a3fa 4dbf
00000270: f29e 803e 1f03 453d 545e 933e a715 8ebe
00000280: cf4d 3bbc 7cf8 62bd 3da2 78be 0ae0 babc
00000290: b76a 61bf ea14 003f 0fd3 15bf ca78 4cbf
000002a0: 2037 1abe dbe7 c4be 33d7 6dbf 019a e8be
000002b0: e1e0 0e3f 2b77 64bf 4294 433f 6d6f 893e
000002c0: 7fa5 073e 6a89 17bf 9e98 b0bd a4b3 9ebf
000002d0: 45a7 13bf e2a6 c73d 0244 d2be 8350 20bd
000002e0: d395 8b3e ec14 253f b289 603f 67e4 99bf
000002f0: e7b6 d13e 30c6 e7be cd66 90bd 99c3 e73d
00000300: 9165 dfbd 93c6 c43e 17bd 1dbe 2c39 7c3e
00000310: 326e e7be c003 373f f584 18bd e462 8cbe
00000320: cd68 033f d385 f03e 32ae 343e 1100 e0bf
00000330: c251 cd3d a065 c3be 9888 22bd fcc9 dc3e
00000340: f81d 8d3e bab6 29bf 6b1c 013f ae34 893e
00000350: 9d48 b73e adc7 ebbe 9e35 26bf f344 683e
00000360: 2dc8 c93e 2d77 b23d 9f6a cbbe b864 a63c
00000370: a253 233f 8cca ae3c 0b9d aa3e 4f7c f63d
00000380: bc12 92be d67c 99be eb18 2abf 6d75 e0be
00000390: a850 8dbd 0b27 5bbb bd42 36be 30c9 dd3e
000003a0: 8281 f33e ef72 5fbe fcb9 79be b8f3 133d
000003b0: 900b 12bf f6e2 1fbf 89cc d23e 300b 7bbf
000003c0: 0e97 c7be 0e06 e3be d20e e63e 9d35 efbe
000003d0: ece4 06bf 6305 8e3e e5e8 64be f215 fe3e
000003e0: 76b2 b4be 265f 3c3f 17b8 7c3e d055 be3d
000003f0: 49a1 f6be e01b 84bf 75af c73e 57b5 223e
-0.69548404 0.62814134 0.39796597 0.11732169 0.1346796 0.17540118 -1.2241154 0.19832216
0.15422522 0.5383172 -0.29858223 0.7172487 -0.022108486 -1.65807 -0.23608992 0.44686887
0.063286096 0.48631364 -0.65237474 0.24468027 -0.18060277 0.13422666 0.4530066 0.60255766
-0.41226396 -0.19964461 0.47860536 -0.23183073 0.12937386 -0.098226026 0.30833426 -0.26875025
1.0259922 0.35468745 -0.7115103 0.039206218 0.08303874 -0.23843792 -0.24260983 0.30241966
0.03754308 -0.08487998 -0.1242885 0.17707525 -0.006733957 0.09489342 0.23628129 -0.12907115
0.20367858 0.29325673 0.54897976 -0.74684215 -0.07175026 -0.07923664 0.05906995 -0.1955885
-0.49491423 0.44924843 0.95338535 -1.2873622 0.028006418 -0.169864 -0.99111193 0.61388123
-0.08731903 0.3553907 -0.21626215 0.08252043 -0.4967004 0.04945012 -0.4312097 -0.05234863
0.1968234 -0.16003457 0.14713563 0.02354333 -0.030100754 0.22495496 0.1624617 0.44559726
-0.0037405472 0.2207059 0.6051215 0.029314792 -0.0122444965 0.28461644 0.2624844 -0.3893998
0.29801717 0.032102987 0.0943243 -0.034934364 -0.21806584 -0.25611055 -0.21293297 0.047849987
0.021326872 -0.28227037 0.16400509 -0.650272 0.5540013 0.03994415 -0.13446876 -0.16460906
-0.15056968 0.32581708 -1.0451657 0.25702822 0.5862652 0.16141748 -0.7895127 -1.249064
-0.48219252 -0.34411237 -0.43527326 0.15293433 -0.58870447 -0.31563935 -0.3721188 -0.4661594
-0.2555117 0.11239921 0.5027912 0.097281516 0.062407643 -0.7056351 -0.13976425 0.5626908
0.2772431 0.65660423 -0.21582402 -0.10868022 -0.23896998 -0.14700232 -0.5387543 -0.22159451
-0.089777514 -0.037245344 -0.08910231 -0.53978777 0.5828595 0.5692299 -0.14042662 0.22121276
0.0037133775 0.21647768 -0.23962228 0.09532985 -0.25313693 -0.76658225 -0.09704522 -0.5785669
-0.02871663 -0.0459306 0.24785939 -0.80460566 0.25121266 0.04809868 0.28782904 -0.27750894
-0.011432125 -0.055412754 -0.24280639 -0.022811908 -0.8805346 0.5003191 -0.58525175 -0.7987181
-0.15060091 -0.38458142 -0.9290649 -0.45429996 0.5581189 -0.89244336 0.763981 0.26842824
0.13246725 -0.5919405 -0.086228594 -1.2398572 -0.5767711 0.09748627 -0.4106751 -0.039139282
0.27262744 0.6448505 0.87710106 -1.2022828 0.40959856 -0.45268393 -0.07050858 0.11316604
-0.10908044 0.3843275 -0.15404163 0.24631184 -0.4520126 0.714901 -0.037236173 -0.27419198
0.5133179 0.469771 0.17644575 -1.750002 0.1002536 -0.3816347 -0.039681047 0.43122852
0.27561927 -0.66294444 0.5043399 0.26798004 0.35797587 -0.46050778 -0.64925563 0.22682552
0.39410535 0.08714137 -0.39729783 0.020311698 0.6379949 0.021336816 0.3332294 0.12035429
-0.28529918 -0.29978055 -0.6644427 -0.4383959 -0.069001496 -0.003344002 -0.17798896 0.43317556
0.47559744 -0.21821187 -0.24387354 0.0361211 -0.5704889 -0.6245569 0.41171673 -0.98063946
-0.38982433 -0.44340557 0.44933182 -0.4672059 -0.5269306 0.27738485 -0.22354467 0.49626118
-0.35292405 0.73582685 0.246796 0.09293711 -0.48169926 -1.0321007 0.3900105 0.15889488

fc2.bias f4 [64]
00000000: 9a31 ec3d 3d16 3c3d 6eac 5b3e e91b 083e
00000010: 7aae 6f3e cc06 ef3d cc22 e83e c690 dc3e
00000020: 04bf bd3e d5e3 0abe 8e7a a53d d36b bfbc
00000030: e8e3 af3e 8c9a c93e daca 8fbd 1310 b2bc
00000040: 6390 a63e 5018 ae3e 5bbd 883d 8e25 7a3e
00000050: ab8d c93e 9b24 e83e 4564 64bd de60 c1bd
00000060: b734 d33e b096 e63d 7d3a dbbc e8d9 963e
00000070: 4a51 933e c48c b43e baf0 8e3e e72b 473e
00000080: 0ec0 d03e 4a85 873e a2f7 bc3e 907a 31be
00000090: cb32 943e 1e8a f43d 92f0 b93e 3b94 a73e
000000a0: 3a43 523d 5138 d4bd f838 973e 6bfc 9fbd
000000b0: 5ce7 4ebe 8e80 c93e fc48 8b3c 6714 31bd
000000c0: 5f90 e0bd cc4e 623e 46ff 883e 018a a23d
000000d0: f6e3 c63e 9165 973e b62d b4bd 3e34 853d
000000e0: b755 42bd 5e47 a5bd 4694 9c3d 6849 753e
000000f0: 7b1b 8f3e 6cb7 803e 942a cdbc 31fb b9bd
0.11532898 0.045919646 0.21452495 0.13291897 0.23406401 0.11671218 0.45339048 0.43079203
0.37059796 -0.13563474 0.08080016 -0.023366844 0.34353566 0.39375722 -0.07021113 -0.02173618
0.32532033 0.34002924 0.06676742 0.24428388 0.39365897 0.45340428 -0.055759687 -0.09442304
0.41251156 0.1125921 -0.026761288 0.29463124 0.28772956 0.35263646 0.27918035 0.19450341
0.40771526 0.2646888 0.3690768 -0.1733191 0.28945002 0.11940406 0.36316353 0.32730278
0.051333643 -0.10362304 0.2953565 -0.07811817 -0.20205444 0.39355892 0.017002575 -0.043232348
-0.109650366 0.22100371 0.26757258 0.079364784 0.38845795 0.29569677 -0.08797781 0.06504105
-0.047445025 -0.08070253 0.076454684 0.23953784 0.27950653 0.2513994 -0.025044717 -0.09081114

fc3.weight f4 [40, 64]
00000000: d00a 9d3e e4cc 893e db0a 2fbe e345 a7bd
00000010: e6ce 3d3e 276a c73e 98a8 85bd 81b5 573e
00000020: c640 be3d a1b5 313e a486 b23d 4c96 303d
00000030: 1a9e 3d3e 493b 3b3e 62ee ed3d cc75 d63d
00000040: f10a 5f3e 2f6d 363e 9669 023f 6212 293f
00000050: 9caa fb3e 0633 ef3e 4867 ccbd 985c 0bbd
00000060: 8341 113d 7828 223f a81a 133d 3b1e 133e
00000070: 7035 433f 6a0c aa3e 0545 ea3e 5b73 983e
00000080: 3c8b 0e3e 6a19 1cbe 01a4 3f3e 9c5c 68be
00000090: 9da1 1e3f f92e 45bd 02e9 e53e e19e 803d
000000a0: ffa6 123f af17 02bf 37d6 12bd 7891 2f3f
000000b0: 7596 af3e 5502 cb3e f78f 72bf 11bf f4be
000000c0: 581d 4ebd b671 dcbe 9a2c 073e bea8 ac3e
000000d0: 08d8 ed3d 45a1 a73e e188 05be ad95 663e
000000e0: 341d a43e 5bb7 363e 23ec d73e 64ca 1d3e
000000f0: 0db4 75bd 4e65 bc3d c2c6 aa3e 43ed b03d
00000100: 383c d33e 265e 1b3d 78d2 563e e6f8 8c3c
00000110: a5b9 3d3e 8839 c53e 1f31 64bd b7e3 933e
00000120: 04ea 32bc 9993 a63e 68cd 8d3d f82e 713d
00000130: e042 863e 0f34 6a3e e0ac e53b ec0a a13d
00000140: d50d c33e 3c5e 6d3e ca06 8a3c 2d4a cb3e
00000150: c2cb 10be e930 fa3e baa1 8b3d 9846 60bd
00000160: 2027 613e e79b 973e c7fc bfbc 6a29 b73e
00000170: 897c b33e f364 583e 30ea 0b3e e03f ba3d
00000180: 343d 1a3e 1021 823e ab72 20bd 37ed 80bd
00000190: 36cc c83e 5f2d f23e 2d17 693d bc5a 8b3e
000001a0: 774b 363d cb43 a33e f584 363d 6f0c c9be
000001b0: c20f d13e 3b2a ae3e 9362 febe a9e5 f33e
000001c0: ecb1 18bd 7e05 023f 06ed 073e 950e 3d3d
000001d0: b0a0 503e 95dd 743e 2a9b 063e 814e cc3e
000001e0: 8062 683e aeae a33e 9b59 373e 218c 1e3f
000001f0: 329c 0e3e 4211 653c c6a0 5d3d 8c1c 6dbb
00000200: 123e 97bf a4df 71bd afd2 903e acfd f53e
00000210: 8f6f be3e ccba 49be 2b11 623e bba3 113d
00000220: d9e9 c43d 0541 c93d 87af 6d3e bc00 ab3d
00000230: 32d1 b93d e0de 033f e8e9 06bd 9e6b 873d
00000240: 3936 3f3e 6a0d 013f 7558 ba3e fdfe 103e
00000250: 5d1e 59be e3b8 813e 8896 9dbc 0aad e63d
00000260: a300 ea3d ed84 a93e da1a f73d d421 c5be
00000270: dff0 e13d 69e2 41bd e4a8 5e3d 03d5 a53d
00000280: eeb0 d83d 7223 133d 27a1 cf3e 4c2b e33e
00000290: f633 7c3e 6ded 083d d03f c73d b662 813e
000002a0: 9f98 c0be e4b5 9ebf ab7c c83e e254 493f
000002b0: 5148 5c3d 05b5 1b3e 54f8 adbe b31c eebd
000002c0: 8338 7cbd 009f 843e f31a f73d a1fd 623e
000002d0: f9c6 a43e 6383 613d 7b5c c1be 7f45 c73e
000002e0: 2d18 0bbf 824b 153e e2a3 8e3f 004a 2f3f
000002f0: 4282 0e3f 2121 903e 1f6d 2dbf b27b ca3d
00000300: b605 03bd 9565 3bbf e7df a5bf 0f60 71be
00000310: 2e67 9f3d 0441 50bf d948 66bc d81c 4d3e
00000320: d3c6 ad3e 7f55 013f ad22 03bf b209 e93d
00000330: 9668 533e 7d60 0b3f 80ed b13a 2882 d1bc
00000340: f799 233d d7b9 fc3d f8de b9be f44c 7bbe
00000350: 4f73 413d 09e6 083f 94db 0e3d 2002 e13b
00000360: b5dd d03e 1062 c53e d8e1 623d 118b 813f
00000370: ba2e bb3e 47fe ae3e 35aa 823f 39f5 c53e
00000380: 0ac0 a63e 7585 993e 356f ce3e a628 2cbe
00000390: 1ecf dabf 325d 6b3f 5a69 8f3c bb50 2abd
000003a0: 8a06 4e3f 6822 533e a905 183e 8314 93be
000003b0: 5f2e 59bd 1097 e23d 83e9 a13e 302b 83be
000003c0: a478 66bd af14 943f b6eb 933e 80d3 083f
000003d0: 08f1 3b3e d122 4c3e 6068 52bf a043 47bf
000003e0: 7e1f 7cbf 806a 063f 2e4d 53bf a699 f23e
000003f0: 2b6d 0f3f 5a89 553e 683e ed3e 3242 693d
0.30672312 0.26914132 -0.17093985 -0.08167627 0.18535957 0.38948175 -0.06526297 0.21065332
0.09289698 0.17354442 0.08717087 0.043112084 0.18517342 0.18284334 0.116177335 0.10471687
0.21781518 0.17815088 0.5094236 0.66043675 0.49153602 0.46718615 -0.09980637 -0.03402385
0.035462867 0.63343 0.035914093 0.14367001 0.76253414 0.33212596 0.45755783 0.2977551
0.13920301 -0.1524407 0.18714906 -0.22691578 0.6196535 -0.0481405 0.44904333 0.06280304
0.57286066 -0.5081739 -0.035848822 0.6858134 0.34294477 0.39650217 -0.9475092 -0.47802022
-0.050320953 -0.43055505 0.13200608 0.3372249 0.1161347 0.32740226 -0.13040496 0.22518034
0.3205353 0.17843382 0.42172346 0.15409237 -0.059986163 0.0919901 0.33354765 0.08639004
0.4125688 0.037931584 0.20978725 0.017208528 0.18527849 0.38520455 -0.055710908 0.2888467
-0.0109200515 0.32534483 0.06923944 0.058882684 0.26222897 0.22871421 0.0070091337 0.07863411
0.3809649 0.23180479 0.01684894 0.3970503 -0.14140227 0.4886544 0.06817956 -0.054754823
0.21987581 0.29611132 -0.023435963 0.35773784 0.3505595 0.21132259 0.13663554 0.090942144
0.1506241 0.2541585 -0.039171856 -0.06295245 0.392183 0.4730024 0.056906868 0.27217662
0.044505563 0.3188766 0.04456039 -0.392673 0.40832335 0.34016594 -0.4968458 0.47636154
-0.037279055 0.5078963 0.13274011 0.046156485 0.20373797 0.23912652 0.13145128 0.39903644
0.22693825 0.31969208 0.17905276 0.6193257 0.13926771 0.013981165 0.054108404 -0.0036180345
-1.1815817 -0.05905117 0.2828574 0.480451 0.37194487 -0.19700164 0.22076862 0.035556536
0.096149154 0.098268546 0.2321149 0.083497494 0.09073104 0.51511955 -0.032937914 0.06612323
0.18673028 0.50411093 0.36395612 0.1415977 -0.21202989 0.2533637 -0.019236818 0.11263473
0.11425903 0.33109227 0.120656684 -0.3850237 0.11032271 -0.047335062 0.054360285 0.080972694
0.10580622 0.035922475 0.40552637 0.4436897 0.24629197 0.033429552 0.09728968 0.25270623
-0.3761644 -1.2399259 0.39157614 0.78645146 0.053779904 0.15205772 -0.33978522 -0.11626568
-0.06157733 0.25902557 0.12065687 0.22167064 0.32183054 0.05505694 -0.3776587 0.3892021
-0.54333764 0.14579585 1.1143763 0.6847229 0.5566751 0.28150275 -0.6774463 0.09886874
-0.03198787 -0.73201877 -1.2958955 -0.235718 0.07783352 -0.81349206 -0.014055454 0.20030534
0.33940753 0.5052108 -0.51224786 0.11378802 0.20645365 0.54444104 0.0013574809 -0.025574759
0.039941754 0.12340134 -0.36302924 -0.24541074 0.047229107 0.53476006 0.034877375 0.0068667084
0.4079415 0.38551378 0.055391163 1.0120565 0.36559087 0.34178373 1.0208193 0.38663653
0.3256839 0.29984632 0.4031922 -0.16812381 -1.7094457 0.9193908 0.01750629 -0.041580897
0.8047873 0.20618594 0.14845909 -0.28726587 -0.05302274 0.11063969 0.31623468 -0.25618887
-0.056267396 1.1568812 0.2889077 0.53447723 0.18353665 0.19935156 -0.82190514 -0.7783756
-0.98485553 0.52506256 -0.8253964 0.4738285 0.5602595 0.20853177 0.46336675 0.056947894

fc3.bias f4 [40]
00000000: d497 9e3e ddb1 d13e 3333 3d3e a347 703d
00000010: a6a6 2cbe 402b e4bc 2548 c93d 2a74 6b3e
00000020: 7580 4f3e 1004 863d f919 1c3e 0c53 a63e
00000030: a953 863e 7e4f a73e e3a2 d63e 494c 733e
00000040: f7d0 0f3e 5611 c33d 3618 bc3e 8ef3 48bb
00000050: df5c 953e 8b78 c93e 123b da3e cc03 fe3e
00000060: df12 e23e 0915 793e 0c6d 8c3d 99d7 833e
00000070: 52d1 8d3c a7d2 863e ea76 af3c 48c7 0e3e
00000080: 51e8 703e 436a 96be 799d 243e caf2 a63d
00000090: 8be0 4a3c 8050 813f e48b 873e 66e3 413e
0.3097521 0.4095601 0.18476562 0.058662068 -0.16860446 -0.027852654 0.098282136 0.22993532
0.20263846 0.065437436 0.15244283 0.32485235 0.26235703 0.32677835 0.41921148 0.23759569
0.14044558 0.09524791 0.3673722 -0.0030662748 0.29172418 0.3934978 0.42623192 0.49612272
0.44155023 0.2432443 0.068567365 0.25750425 0.017311726 0.2633259 0.021419007 0.13943207
0.23526122 -0.29377946 0.16075696 0.08151777 0.012382637 1.0102692 0.26473916 0.18934402
