Reinforcement Learning/homework/作业二_FightingGame/格斗游戏大作业_提交/RL_fightinggame/checkpoints/DQN/ZEN/best-267.pth (torch, 120274 bytes, 6 tensors)

fc1.weight f4 [128, 144]
00000000: 071d f8be 19b6 56bf 6627 abbd 5243 363e
00000010: 1263 553e fc0b ffbd 52f7 0b3d 095c 6abe
00000020: 3cc5 03bd b881 8fbd 44d7 fabd ed1b 2a3e
00000030: bc4a 853e 7798 61bf ad85 f7be d9dd 98be
00000040: d733 8b3e 52fd 243e ab43 a53e 1d9f 49be
00000050: 3da5 d1bc fb7f 623e fc90 ef3a eab5 beb9
00000060: f8f3 67bd 981e cfbd 311f 143c b993 a5be
00000070: 9d6f 993d 4a3a 6c3d d4b9 59bc 23f9 bebe
00000080: 09f2 e5be 1cc8 3b3e 97ba 21be 4c8b 93bf
00000090: ce04 0bbf a7bd 3abe f9e0 203e e49d 423e
000000a0: b652 72bf 2386 dfbe 6c6e b43d 2cd6 f03e
000000b0: 89a3 25bd b99b ecbe dc9d 1dbe e73e 9fbd
000000c0: 309a 303e a081 0ebe 0545 0cbe c8a1 383b
000000d0: 921a d93e 66bd a8bf 4d2b 8d3d 0e84 e5be
000000e0: 4928 e7be c9e8 9ebd 7f31 f53e da85 a63d
000000f0: f052 903e ee5c cfbe 30eb 3dbe 8c1b ecbe
00000100: 8a49 fcbc 4b07 bebe ce67 573c e305 e2be
00000110: 6378 66bd 842e dfbe dc14 a83e c89e b3bd
00000120: 6759 0bba 84aa 87bd 49f1 14bd a07f 033b
00000130: e5e7 fd3e 8955 febd 89f1 98bd ba2d d3be
00000140: 4281 5e3f d6b0 86bb 7759 90be f8b3 81bd
00000150: d092 ffbe 905b 66bd 96c5 a63d 1928 753c
00000160: 8f50 debd 56f2 6d3d 88ff 793c 70e6 c9be
00000170: 8d20 433d 3874 633c 26c4 58be cf3e a0be
00000180: 39f7 42bd 5ecc 6c3d e4f7 34bf e8c3 f83d
00000190: a654 18be be7e f2bd c589 edbe 548f f1bc
000001a0: 0b2a c23e bf13 ef3e 0d1f 90be 961b 28be
000001b0: fe23 99be 6bec 37be 0d23 6abf b536 8cbe
000001c0: a788 51be 7cb6 4cbe a113 d1bc d44a 8f3e
000001d0: d0b2 013c af81 1a3e f518 e4be fc69 5fbe
000001e0: 7a28 2abe 6ccc 003e ba40 683d ad0f 0dbf
000001f0: 13c6 f8be 77ab 703e 7a44 743d 78ad d0be
00000200: 8167 9fbd 2830 efbd a9a0 bc3e 553a c23e
00000210: 50a4 c83e 7b8f 323f 3064 f7bc f52a 283e
00000220: 1ede 153e ccdb 3c3e 042f fa3e c6ba 103f
00000230: 5006 87be 49c2 75be 4a37 8bbe df30 adbe
00000240: 4052 0f3f 6b95 803e 8838 ddbd 3f63 21bf
00000250: 3a6c 23bd 4545 25bc 3fd6 00bd cb20 5fbe
00000260: b279 30be 2656 6b3d 7e03 2fbe 318c c8be
00000270: 4f8d 91be ef43 6abe 92d2 7a3c 4bfc 50be
00000280: 8d55 debe 82f7 e8bd e514 273e 96f7 d2bd
00000290: 3a38 c93e 5d02 523e cfd0 a9bd b227 94be
000002a0: 96d3 00bd 3c67 f3bd 8d81 0bbf 2b7e 95be
000002b0: 2efa 6a3d a092 eabc 67f1 41be 1817 e5be
000002c0: cf74 b13e 7f13 e5be 1d06 d23e 1b53 32bf
000002d0: 2f6a 76be 11f3 d63c 718d 823d 2523 823e
000002e0: 0ea3 073f 37e8 a8be 9854 553d 2578 453e
000002f0: 4ac3 abbe 6988 c5be b47c b73c 7234 05bc
00000300: 27b4 95be 1fca debe a009 083e 2b33 0bbf
00000310: 85a8 023e 0c99 3cbf 8494 dabe 8da5 3b3d
00000320: dff1 843d 924a 8bbe 4d95 143f 9d21 43bf
00000330: 35c6 193e f5aa 69be 0fb9 8dbe f490 b7be
00000340: 48a9 a53e 6070 1abe 6c13 d83e 46b0 3ebf
00000350: 35dc 5cbd 1854 b3be b960 633f 759d 2a3d
00000360: 859d 55bf 25e8 243e 52c8 74be 8e09 763d
00000370: 95ed 1fbf cef8 55bc a844 c0be 29c3 cebd
00000380: 5527 563c cd42 6dbd 80bf cdbe 1a95 963e
00000390: b06f 2d3d 6282 1bbe 84f7 243d 0da7 c3be
000003a0: 124f 243d aafc 0f3d 1084 a4bb 2d01 0a3e
000003b0: bf72 bbbe b003 f0bd 6c0b 1cbe fcb0 adbe
000003c0: b31f c2bd c1c9 dfbd 28d8 5c3c 4cbd c3bd
000003d0: 4b68 40bb 1bfc af3d dd57 ba3d 4542 45bf
000003e0: 22bb dfbe a4ff cabd 638f cf3e 7c30 0abe
000003f0: ca6e 39be d33e d73e 055f d0be c341 c3be
-0.48459646 -0.8387161 -0.08357124 0.17799118 0.20838574 -0.12453458 0.03417141 -0.22886671
-0.03217052 -0.07007164 -0.1224809 0.16612215 0.2603358 -0.8812327 -0.48344174 -0.29856756
0.27187988 0.16112259 0.3227819 -0.19689603 -0.025591487 0.22119133 0.0018277462 -0.0003637516
-0.05662915 -0.10113257 0.00904064 -0.32339266 0.07491992 0.057672776 -0.013288934 -0.3729945
-0.4491122 0.18338054 -0.15793835 -1.1526885 -0.54304206 -0.18236409 0.1571082 0.19005543
-0.94657457 -0.43657026 0.08810124 0.470384 -0.040439162 -0.46212557 -0.1539225 -0.077756695
0.17246318 -0.13916636 -0.13698204 0.00281726 0.42403084 -1.31828 0.068930246 -0.44827312
-0.45147923 -0.07759244 0.47889325 0.08130999 0.28188276 -0.40500587 -0.18546748 -0.46114767
-0.030796785 -0.3711494 0.013147308 -0.44145116 -0.056267153 -0.43590176 0.32828414 -0.087705195
-0.0005315751 -0.0662432 -0.03636292 0.0020065084 0.49590984 -0.12418658 -0.07467944 -0.41245824
0.8691598 -0.004110436 -0.28193256 -0.063331544 -0.49916697 -0.056239665 0.08143155 0.014963173
-0.10855209 0.058092438 0.015258677 -0.39433622 0.047638465 0.013882689 -0.21168575 -0.3129792
-0.04759905 0.057812087 -0.7069075 0.12146741 -0.14876041 -0.118405804 -0.46394172 -0.02948729
0.379227 0.46694753 -0.2814869 -0.16416773 -0.29910272 -0.1796128 -0.91459733 -0.27385488
-0.20462285 -0.19991487 -0.025522055 0.27986777 0.007916167 0.15088533 -0.4455029 -0.21817774
-0.16617003 0.12577981 0.056702353 -0.55102044 -0.4858862 0.23502909 0.059635617 -0.40757346
-0.07783414 -0.11679107 0.36841324 0.3793513 0.3918786 0.69750184 -0.03019914 0.16422637
0.14635512 0.18443221 0.48863995 0.56534994 -0.26372004 -0.23999895 -0.2719062 -0.33826348
0.5598488 0.25113997 -0.10801798 -0.6304206 -0.039898135 -0.010087316 -0.03145432 -0.21789853
-0.17233923 0.057455204 -0.17091176 -0.39169458 -0.28428122 -0.22877477 0.015308993 -0.20408742
-0.43424645 -0.11375333 0.16316564 -0.103011295 0.3930071 0.20508714 -0.0829178 -0.28936535
-0.031451784 -0.11884925 -0.54494554 -0.2919782 0.057367496 -0.02863437 -0.18939744 -0.44744182
0.3465943 -0.44741437 0.4102029 -0.6965806 -0.24063943 0.02623895 0.06374634 0.25417438
0.52983177 -0.32989666 0.052082628 0.19284113 -0.3354743 -0.38580635 0.02239833 -0.00813018
-0.29239008 -0.4351358 0.13284922 -0.5437495 0.12759598 -0.7367103 -0.42691433 0.04581218
0.06491446 -0.2720533 0.58040315 -0.76223165 0.15017016 -0.22819121 -0.2768025 -0.35852778
0.32355714 -0.1508193 0.42202318 -0.7448772 -0.053920943 -0.35025096 0.8881946 0.04165407
-0.8344348 0.16104181 -0.23904541 0.060067706 -0.62471896 -0.013059808 -0.3755238 -0.100958176
0.013070901 -0.057925034 -0.40185165 0.2941063 0.04234284 -0.15186456 0.04027511 -0.38213387
0.04011447 0.03515307 -0.005020626 0.13477011 -0.36610982 -0.11719453 -0.15238732 -0.3392409
-0.094787024 -0.109271534 0.01347927 -0.0955759 -0.0029359038 0.08593007 0.0909879 -0.77054244
-0.43697459 -0.09912041 0.40539083 -0.13495058 -0.18108669 0.4204012 -0.40697494 -0.3813611

fc1.bias f4 [128]
00000000: 4155 4dbd b4ab e3bd 8082 13be 9ecb 8e3d
00000010: 1976 58bc dc30 29be 0190 50be b218 e1bb
00000020: d4a6 363b 4931 673c 39f5 e9bd 26d5 13bd
00000030: 5eb6 3cbd 814b 07bd f0d7 d4bd 247b 0ebe
00000040: d4f5 efbd c363 80be e1a5 a53e 0287 95be
00000050: e0dc 4cbe 1acc bb3c d91d 86bc 6b5f b03d
00000060: a304 3ebd 5050 8cbd 31e8 7fbe eab9 87be
00000070: d697 003e 4e71 133e 59fd 3bbe cd23 23bd
00000080: 17e1 52be da6a b9ba 8eb9 c8bd edd4 cebd
00000090: 3e35 253e 7a94 2fbe 392c f4bd 7477 09be
000000a0: 2bcd 69bb b6b9 0abe 4273 8e3e 3bc0 a4bd
000000b0: 59a5 26be 697c bb3c 9e18 f9bd 5e42 30bc
000000c0: 283e 06bd 3e3e a9bd f039 60bc dbe9 a5bd
000000d0: ba0c 143e 77cd 18be acf6 86bc dd70 09be
000000e0: ed9b 8c3c bc5c 2dbd b6fe 2bbc 74a5 75bd
000000f0: 416a 26be 1be8 0c3e c1ca ccbc 0741 70bd
00000100: 2aa6 53be debf 03be eaa4 643d 9994 8cbe
00000110: b433 b2bd 24e0 37be 02d9 c5bd 5d9a 13be
00000120: 6995 90be 0686 67be e947 09be 015b 133d
00000130: 74d0 c5bd 08a0 35be ca2a 36bd 1be1 09be
00000140: 5044 ebbd bd2f 04be b506 32be 1a67 78bd
00000150: 9200 20be 8236 02be 22d9 1fbe 4c1c a8be
00000160: 7187 1bbe c5e2 c4bd 03b7 093d 702c 53ba
00000170: e5cc 7abd a413 85bd 3499 88bd 5997 83be
00000180: 52be 0cbd 6ddc 46be 9c0f 963c 53fb 023e
00000190: 54b3 36be 1d97 22be d699 e1bd d966 303d
000001a0: 6656 263d 6cb4 663d 3259 75bd 3003 11be
000001b0: 7a44 76bd 020f 78be 2a2f 573e c283 373e
000001c0: ab3f 6fbe e1d9 73be 17ef a0bd c1bf 873d
000001d0: 6506 a2bd f508 4d3e 0896 9dbc c2d3 cdbd
000001e0: 6788 bc3c fa01 5abe 3296 c5bd 708d 61be
000001f0: 5f13 6dbe fbf3 7e3d f0cf 1bbe fcd9 06bd
-0.050130133 -0.11116734 -0.1440525 0.06972431 -0.01321175 -0.16522545 -0.20367433 -0.006869399
0.0027870433 0.014110872 -0.11423726 -0.036091946 -0.046072356 -0.03303099 -0.10392749 -0.13914162
-0.1171681 -0.25076112 0.32353118 -0.29204565 -0.20006132 0.022924472 -0.016371654 0.086119495
-0.04639114 -0.06851256 -0.24990918 -0.2650903 0.12557921 0.14398691 -0.18358363 -0.039829064
-0.20593677 -0.0014146224 -0.09801017 -0.10099206 0.16133592 -0.17146483 -0.11922497 -0.13424474
-0.0035675268 -0.13547406 0.2782231 -0.080444776 -0.16274013 0.022886472 -0.121628985 -0.010758011
-0.03277412 -0.08263825 -0.013685688 -0.08101245 0.1445798 -0.14922129 -0.016475044 -0.1342196
0.017164195 -0.042324767 -0.01049774 -0.05997224 -0.1625147 0.13760416 -0.024999024 -0.058655765
-0.20668855 -0.1286616 0.055821337 -0.2745712 -0.08701268 -0.17956597 -0.096605316 -0.14414354
-0.2823899 -0.2260972 -0.13406338 0.03597546 -0.096589 -0.17736828 -0.0444744 -0.13464777
-0.11487639 -0.12908836 -0.17385371 -0.0606452 -0.15625218 -0.12716106 -0.15610173 -0.3283409
-0.15188386 -0.09613565 0.0336218 -0.0008055633 -0.06123056 -0.06497887 -0.06669846 -0.25701407
-0.03436119 -0.19420023 0.01831799 0.12791185 -0.17841846 -0.15877958 -0.1101567 0.043066833
0.04060974 0.056324407 -0.059899516 -0.14161372 -0.060123898 -0.24224475 0.21014085 0.17921355
-0.23364131 -0.23813583 -0.07858103 0.06628371 -0.07911376 0.20022948 -0.01923658 -0.10050155
0.02301426 -0.21289816 -0.09647788 -0.2202661 -0.2315192 0.062244397 -0.1521604 -0.03292273

fc2.weight f4 [64, 128]
00000000: 585b 2ebf 0dcb 223f 2c5c e23e 0f05 263e
00000010: 057f 223e bc42 453e c314 a3bf 389f 463e
00000020: 0431 d53d b62a ff3e 7a63 adbe 6076 313f
00000030: 4f79 64bb 138d d7bf f105 7abe d7fc 063f
00000040: 9b58 a23d 604f f73e c032 2bbf 8dbc 8f3e
00000050: c9a5 77be 14a3 033e 8921 ed3e a83b 1c3f
00000060: 4cb4 d7be b911 74be 0a28 ed3e 855b 81be
00000070: 3431 1a3e b008 efbd 222d 8f3e 09fb 6dbe
00000080: 56c6 813f 6c86 bb3e 9752 33bf aac2 ff3c
00000090: ea93 f43d eae2 75be 545d 93be ca5d a03e
000000a0: 40f6 4db9 78eb d9bd d234 07be 480a 543e
000000b0: cd0c 1e3d cba4 d73d 48ac 763e 5e3a e5bd
000000c0: 6fcd 483e 4926 a13e 3f06 1d3f ee82 3dbf
000000d0: 9684 5fbd 6935 d1bd 81e9 dc3d 5dcd 8bbe
000000e0: 0fe7 e2be a3a1 e53e b390 773f b8d7 a0bf
000000f0: ae57 b53c e4b0 36be f657 74bf c222 1c3f
00000100: 5f5a 91bc 0694 db3e ddd7 66be 7dfd 993d
00000110: 5233 05bf c7c8 8dba db4e e2be 8748 9bbd
00000120: 6161 373e c083 15be 771d 0d3e 0311 bd3d
00000130: 97d2 9abc e769 7f3e b8c0 6c3e 00df dd3e
00000140: 1785 943c e8bd 873e 3bfe 1a3f 1184 c13d
00000150: aa1c 87bc 400b ab3e ce15 8f3e aebc cfbe
00000160: ddb3 a43e 6c7e 033d cec0 983d a4a9 e0bc
00000170: f475 27be b943 7cbe b6cd 55be f368 023e
00000180: c412 923d 8580 8bbe 1d14 1b3e 5aa0 24bf
00000190: 9621 093f 376e 353d 49f4 00be 67ee 3ebe
000001a0: 4709 13be 03e3 a43e cc4a 83bf d7cf 8f3e
000001b0: 7472 123f bb57 5f3e dbff 44bf 52f7 a1bf
000001c0: b132 09bf 2d6e adbe c98c f4be 9690 353e
000001d0: f469 06bf f9e9 acbe c477 c2be 305f e4be
000001e0: 38a8 7dbe 8e0b e83d e8a4 043f 9773 d13d
000001f0: b7b5 c63c 550b 2ebf cdcd 27be 7994 0e3f
00000200: 038c 763e 00b9 283f cb78 86be 67b3 04be
00000210: afea 5cbe 36bc 09be 9393 0dbf 9df3 4cbe
00000220: d7cb e9bd 4687 4bbd d3f1 a0bd f4e4 16bf
00000230: 64af 133f 529d 1a3f 3c6f 0fbe 04fa 543e
00000240: 3c2c 993d 499a 783e e239 85be e5c7 ef3d
00000250: 81f4 8ebe d0d3 3fbf f818 65bd 9ae4 10bf
00000260: 69fc 8abd 30cd 08bd f286 973e 74ae 4ebf
00000270: c597 743e 8d6b 113c 3bed 9d3e 8771 8ebe
00000280: 30a1 1abc baab 8fbd f157 3dbe c415 31bd
00000290: f954 54bf cc40 f93e 90ad 17bf c778 4ebf
000002a0: 63a4 cebd 657d c3be 6d71 75bf 7d87 d8be
000002b0: f418 193f e70f 63bf 5ba3 473f a8f2 7e3e
000002c0: 09a3 dd3d 6ce3 17bf b2c7 3ebd eebc a0bf
000002d0: 6372 1fbf c2d5 cd3d 1f12 dabe 5139 18bb
000002e0: 32c6 6c3e 80fa 273f fe27 6c3f f49d 96bf
000002f0: 3f2c de3e 1b24 e0be 6f7c 96bd d18b 003e
00000300: fa3c 07be e349 d53e 1b88 37be 4e31 693e
00000310: 8e33 d5be e46f 3d3f b709 45bd 6a4a 7dbe
00000320: cbf1 ed3e 73c3 da3e 62f8 253e c922 e1bf
00000330: 8689 e73d 9c45 babe d4a3 593c f6c2 d83e
00000340: 45ad 953e e23e 35bf 7eef 063f de8c 903e
00000350: 78bf ae3e ff74 f9be f9c6 22bf a63a 8f3e
00000360: 5e51 da3e 2d77 b23d ad95 c9be 343f 1bbc
00000370: 1494 243f c68a 453d 9cfc ac3e 6af2 403e
00000380: 8046 9fbe 2e78 83be ad84 28bf db49 d5be
00000390: ef8f 59bd 72ff 84bb 02a1 41be 2e03 d93e
000003a0: a916 ff3e 2de0 52be 1f25 72be 9a71 da3c
000003b0: 8cb4 11bf 5dc9 24bf 5d9f c93e 2d1e 7bbf
000003c0: 95d4 c7be 98af d5be 5b53 cf3e dfaa f3be
000003d0: 9a80 0abf 93d8 913e 2a8f 3cbe 24b9 fc3e
000003e0: fe61 8ebe e845 393f 515f a13e 9f63 f13c
000003f0: 5be5 e6be 0acd 83bf 1ba4 c83e f6f7 013e
-0.6810813 0.6359108 0.44210947 0.16212867 0.15868767 0.19263738 -1.2740711 0.19396675
0.104097396 0.49837273 -0.33864957 0.6932125 -0.0034862345 -1.6839927 -0.24416329 0.52729553
0.079270564 0.48302746 -0.66874313 0.2807354 -0.24184336 0.12855178 0.46314648 0.6102853
-0.42129743 -0.23834886 0.4631961 -0.25265136 0.15057832 -0.11671579 0.2796412 -0.23240294
1.0138652 0.36625993 -0.700479 0.031220753 0.11942275 -0.24012342 -0.2878214 0.31321555
-0.00019642059 -0.10640615 -0.13203743 0.20707047 0.038586427 0.10529479 0.24089158 -0.11192773
0.19609617 0.31474522 0.61337656 -0.7402791 -0.054569803 -0.10215265 0.10786725 -0.27305117
-0.4431691 0.44849882 0.9670517 -1.2565832 0.022136535 -0.17840916 -0.9544672 0.60990536
-0.017743288 0.4288637 -0.22543283 0.07519052 -0.52031434 -0.0010817283 -0.44200787 -0.07582193
0.17908241 -0.1460104 0.13780771 0.0923176 -0.018899245 0.24942742 0.23120391 0.43334198
0.018129868 0.26512074 0.60544175 0.09449018 -0.01649316 0.3340702 0.27946323 -0.4057364
0.32168475 0.032102987 0.074586496 -0.027424641 -0.1635359 -0.24635209 -0.20879254 0.12735347
0.071324855 -0.2724649 0.15144391 -0.6430718 0.53566873 0.044294562 -0.12593187 -0.18645631
-0.14359008 0.32204446 -1.0257201 0.28088257 0.5720589 0.2181081 -0.76952904 -1.2653601
-0.53592974 -0.3387312 -0.4776366 0.17730936 -0.5250542 -0.33772257 -0.37982 -0.44603872
-0.24771202 0.11330329 0.51814127 0.10227125 0.02425657 -0.6798604 -0.163871 0.556953
0.24076848 0.6590729 -0.26264033 -0.12959062 -0.215739 -0.13450703 -0.55303305 -0.20014806
-0.114158325 -0.049689554 -0.07858624 -0.58943105 0.576895 0.603963 -0.14007276 0.20798498
0.0747914 0.24277605 -0.26020724 0.11708049 -0.27920917 -0.74932575 -0.055932015 -0.5659882
-0.06786425 -0.033398807 0.29595143 -0.80734944 0.2388602 0.00887574 0.30845055 -0.2782099
-0.009437844 -0.07015176 -0.18490578 -0.043233648 -0.8294216 0.4868225 -0.5924921 -0.8065304
-0.10089948 -0.38181606 -0.958762 -0.4229087 0.598037 -0.8869614 0.77983636 0.24897254
0.10822112 -0.59331393 -0.046577163 -1.2557657 -0.62283915 0.10050537 -0.4259195 -0.0023227523
0.2312248 0.6561661 0.92248523 -1.1766953 0.43393132 -0.43777546 -0.073479526 0.12553336
-0.13206854 0.41657934 -0.17923014 0.22772714 -0.41640896 0.73998857 -0.048104968 -0.24735418
0.46473536 0.4272724 0.16208032 -1.758874 0.113055274 -0.36381233 0.013283689 0.42336243
0.29233757 -0.70799077 0.52709186 0.28232473 0.34130454 -0.48722073 -0.6358486 0.27974433
0.42640203 0.08714137 -0.39372006 -0.009475518 0.6428845 0.048228048 0.33786476 0.18842474
-0.31108475 -0.25677627 -0.6582745 -0.4165791 -0.05311578 -0.0040587718 -0.18909076 0.42385238
0.49821976 -0.20593329 -0.23646973 0.026665498 -0.5691612 -0.64369756 0.39379397 -0.9809292
-0.39029375 -0.4173553 0.40493283 -0.47591302 -0.5410248 0.28485546 -0.18413988 0.4936
-0.27809137 0.72372293 0.31518033 0.029466448 -0.4509686 -1.0296948 0.39187703 0.12692246

fc2.bias f4 [64]
00000000: 0404 073e 5f40 6f3d 973a 753e 08c2 073e
00000010: af27 733e da81 033e 35d7 e83e 9080 e33e
00000020: 94c7 c63e bbb4 12be f623 ac3d d36b bfbc
00000030: 5e7f b43e ecfc ce3e daca 8fbd 1310 b2bc
00000040: 7284 a73e 3c14 b33e 5e0d 3f3d bcc0 833e
00000050: 18e8 ce3e 8f49 e83e 4564 64bd de60 c1bd
00000060: a7ef d93e 592e 0e3e 7d3a dbbc 4f4a 983e
00000070: 52e7 9c3e 51d3 b83e dd21 8e3e 0c99 4b3e
00000080: 68ba d23e 7500 913e ce20 b83e 3fb9 44be
00000090: f2eb 8f3e 387a 0c3e dab4 be3e 691a a53e
000000a0: 0bf0 4c3d d1fa f3bd a763 983e 6b7e 84bd
000000b0: b72a 58be 5b6e cf3e f694 6f3c 4fb3 ddbc
000000c0: 5f90 e0bd 964a 613e 07f7 8c3e b507 a23d
000000d0: 44c2 c93e f310 9a3e bcc6 9ebd afef 6d3d
000000e0: 81d1 68bd d6ca 9dbd fd2f a53d 6ef3 6c3e
000000f0: 8cdc 943e c21d 853e 549a 42bd 31fb b9bd
0.13185126 0.058411 0.23948132 0.13257611 0.23745607 0.12842503 0.4547669 0.44434023
0.3882414 -0.14326756 0.084052965 -0.023366844 0.35253423 0.4042734 -0.07021113 -0.02173618
0.32718235 0.34976375 0.046643607 0.25732982 0.40411448 0.4536862 -0.055759687 -0.09442304
0.42565653 0.13884868 -0.026761288 0.29744193 0.30645233 0.36098722 0.2776021 0.19882601
0.41157842 0.2832066 0.35962528 -0.19211291 0.281097 0.13718498 0.37247354 0.32246712
0.05003361 -0.11913074 0.2976353 -0.06469425 -0.21110044 0.40513882 0.014622917 -0.02706304
-0.109650366 0.22001109 0.27532217 0.07911626 0.39406025 0.30091056 -0.07752749 0.05808991
-0.056840423 -0.077047035 0.08065794 0.23139736 0.29074514 0.25999266 -0.04751046 -0.09081114

fc3.weight f4 [40, 64]
00000000: 0e46 923e 9b3c 8e3e db09 04be 2cba 4fbd
00000010: e83d 443e fc8d b33e a66f 8fbd b01c 513e
00000020: 4212 ea3d 72a5 473e e3e1 173e 4c96 303d
00000030: 2c43 483e c960 453e 62ee ed3d cc75 d63d
00000040: 7dc1 663e 3ee9 3f3e 7f2c 123f a4d4 253f
00000050: 4044 ef3e 948e e13e 4867 ccbd 985c 0bbd
00000060: 2f8d 123d b26c 263f a81a 133d c3ea 1e3e
00000070: 161c 413f 183d b53e 4ec2 e63e 2b33 a33e
00000080: 810d 3d3e db8f ecbd 4cf6 4f3e d4e3 7dbe
00000090: e6c6 233f a2de c1bd cbf2 e03e 31db 8d3d
000000a0: 3d25 133f dda2 02bf 377c 9dbc ef1e 243f
000000b0: dc3b a63e b842 cc3e 251b 80bf 950b c8be
000000c0: 581d 4ebd ce1e d8be d10a 323e 5ef5 db3e
000000d0: 0b3a 003e fb3b a93e 5270 12be b205 433e
000000e0: cdd0 a23e 4361 053e 2eae cf3e 09e3 163e
000000f0: f3e1 a1bd 42fa ab3d 2da4 c13e 43ed b03d
00000100: d39c cf3e 1941 ee3a e908 4c3e f105 e5bb
00000110: 75da 413e 6d6c c73e 2b1c febc a849 943e
00000120: 484c 9abc eef0 bd3e 4d23 a63d f82e 713d
00000130: 8908 873e 9f4f 6c3e e0ac e53b ec0a a13d
00000140: ff8b c53e 3f79 793e 99e4 57bb 3453 cf3e
00000150: e82c 02be 56ed fa3e baa1 8b3d 9846 60bd
00000160: ba36 5d3e 70c9 ab3e c7fc bfbc 26de 923e
00000170: da15 ac3e 90d1 6b3e 5763 3f3e 8934 a73d
00000180: 7056 313e adfd 8f3e 4bcc 1cbd 0dda 8abd
00000190: ce7f d03e 3397 fd3e ebf0 6b3d 3a6e 853e
000001a0: faf2 903d 6f57 883e 0d2a 3a3d aa2a d2be
000001b0: 4e24 bd3e 4136 ad3e 4be6 ffbe fb78 ea3e
000001c0: ecb1 18bd 5b93 e03e fb17 0f3e 4ba1 cfbc
000001d0: 3cb8 603e d811 753e 24aa f23d c2ec d53e
000001e0: 55d8 513e 3395 a03e e7f1 3f3e 3dc2 0d3f
000001f0: e49a 243e 1fb8 7a3c de68 5f3d 8c1c 6dbb
00000200: 962f 9fbf 7446 64bd 86e8 983e 232a ef3e
00000210: d5a3 ab3e 6553 14be 71df 693e 7586 fc3c
00000220: fabf 4e3e b58a f63d f1cc 653e bc00 ab3d
00000230: b7c7 a33d 8157 013f e8e9 06bd 9e6b 873d
00000240: fcf7 303e 4eb8 113f c64b bb3e f12d 423e
00000250: 4bb8 59be 6aee 763e 8896 9dbc 0aad e63d
00000260: ee55 c03d 3cf2 c23e da1a f73d eb44 d2be
00000270: 707d 093e 600d c7bd d2bb 343c 71bf 433d
00000280: 68f8 023e 124f 2b3d 18ee bb3e 68b7 f13e
00000290: 1818 873e 0ccb 623d 8c44 973d 2e0c 753e
000002a0: 5c92 c2be 3d5c 9cbf f1f1 e03e 6b14 3d3f
000002b0: eece 423d cc2f 143e 1c99 b2be 80bd d3bd
000002c0: 8338 7cbd 3645 8b3e 17c6 133e 0d63 903e
000002d0: bae1 b13e 90c2 763c 1368 c4be f8b0 e33e
000002e0: 9049 0ebf bb12 2e3e 499a 903f f46c 363f
000002f0: 003b 1e3f 404d 8a3e 35bd 2cbf b27b ca3d
00000300: 9fa5 56bd fd19 3cbf 703e aabf 8841 82be
00000310: cbb1 9b3d 6ecd 59bf b826 2cbc a887 5b3e
00000320: 502a bb3e 36fe 033f 7398 03bf b209 e93d
00000330: 5cb4 5d3e 5cda 0e3f 80ed b13a 2882 d1bc
00000340: 3301 5c3d a856 063e 1fd1 bdbe b157 82be
00000350: 8fa7 863d fce7 0c3f 94db 0e3d 2002 e13b
00000360: 7581 e13e b65b c93e d8e1 623d f29a 803f
00000370: ef76 c33e c3f8 b53e 65e0 7e3f b7d0 c93e
00000380: 6133 af3e 00a8 993e 78e6 d03e fa98 ebbd
00000390: 19a5 dbbf 19a8 643f b13f de3c 778d d4bc
000003a0: 253a 4e3f c5f7 5d3e cd61 183e 6649 a5be
000003b0: 3374 66bd 75fe fc3d 5dce bb3e 96d1 6dbe
000003c0: a478 66bd e48d 983f 16a4 a03e 8757 0e3f
000003d0: c1c8 383e 2ae3 413e 0140 54bf c4f0 4bbf
000003e0: 9cf0 76bf 8f47 0a3f 924c 5ebf 4920 ed3e
000003f0: aedd 1f3f 17c6 563e 3595 f63e 3242 693d
0.28569072 0.27780613 -0.12894385 -0.050714657 0.1916424 0.35069263 -0.07003717 0.204211
0.11429264 0.19496706 0.14832263 0.043112084 0.19556874 0.19275202 0.116177335 0.10471687
0.22534747 0.18741319 0.57099146 0.6477759 0.46731758 0.4405409 -0.09980637 -0.03402385
0.035779174 0.65009606 0.035914093 0.15519242 0.7543348 0.35398173 0.45070118 0.31874976
0.18462183 -0.11550876 0.20308799 -0.24793941 0.6397537 -0.09466292 0.43935236 0.06926573
0.57478696 -0.5102976 -0.01922427 0.641097 0.32467544 0.39894652 -1.0008284 -0.39071336
-0.050320953 -0.42211002 0.17386939 0.42960638 0.12522142 0.33053574 -0.1430066 0.19045141
0.31799927 0.13025384 0.40562576 0.14735045 -0.079044245 0.08397342 0.3782057 0.08639004
0.40549335 0.001817736 0.19925274 -0.0069892337 0.18930991 0.3894991 -0.03101929 0.28962445
-0.018835202 0.37097877 0.08112202 0.058882684 0.263737 0.23077248 0.0070091337 0.07863411
0.3858337 0.24362658 -0.0032942651 0.40493166 -0.12712443 0.49009198 0.06817956 -0.054754823
0.21602908 0.33552122 -0.023435963 0.2868511 0.3361042 0.2302916 0.18690239 0.08164317
0.1731813 0.28123227 -0.038280766 -0.06779871 0.40722507 0.49529418 0.057602804 0.2606066
0.07077594 0.26629207 0.04545026 -0.41048175 0.3694176 0.33830455 -0.49980387 0.45795426
-0.037279055 0.43862423 0.13973992 -0.025345465 0.2194528 0.23932588 0.11848858 0.41782194
0.2049268 0.3136383 0.18744622 0.5537451 0.16074711 0.015302687 0.05454337 -0.0036180345
-1.2436397 -0.05573125 0.298649 0.46711835 0.3352343 -0.14484937 0.22839142 0.030825833
0.20190421 0.12038175 0.2244146 0.083497494 0.07997077 0.50524145 -0.032937914 0.06612323
0.17282099 0.5692185 0.36581248 0.18962838 -0.21261708 0.24114385 -0.019236818 0.11263473
0.0939139 0.38075435 0.120656684 -0.41068205 0.13426757 -0.09719348 0.011031108 0.047789995
0.12790072 0.041823454 0.3670509 0.4721024 0.2638557 0.05536942 0.07386121 0.23930427
-0.38002288 -1.2215649 0.43934587 0.7385928 0.047560625 0.14471358 -0.34882438 -0.10338879
-0.06157733 0.2720124 0.14431034 0.2820057 0.34742528 0.015061036 -0.38360652 0.44470954
-0.55581 0.16999333 1.1297084 0.7126 0.61808777 0.27012062 -0.67476207 0.09886874
-0.052404042 -0.73477155 -1.3300304 -0.2544062 0.07602271 -0.85079086 -0.010507278 0.21438468
0.3655572 0.5155977 -0.51404494 0.11378802 0.21650833 0.5580194 0.0013574809 -0.025574759
0.05371208 0.13118994 -0.3707361 -0.25457528 0.06574928 0.5504148 0.034877375 0.0068667084
0.4404408 0.39327782 0.055391163 1.0047286 0.38176677 0.35541353 0.9956115 0.3941705
0.34218886 0.30010986 0.40800834 -0.11503787 -1.7159759 0.89318997 0.02712998 -0.025946362
0.8055747 0.21676548 0.14881058 -0.3228256 -0.05626316 0.12353221 0.3668088 -0.23224482
-0.056267396 1.1918302 0.31375188 0.55602306 0.18045332 0.18934312 -0.8291016 -0.79664254
-0.9646089 0.5401544 -0.8683559 0.46313694 0.6244763 0.20974003 0.4816071 0.056947894

fc3.bias f4 [40]
00000000: 6851 9b3e db19 d33e c3fc 263e 4127 903d
00000010: f6b8 1abe d3b9 e0ba 05b8 8b3d 9471 4f3e
00000020: d85b 3d3e ab3e 763d 3af9 253e 0177 b23e
00000030: 6623 973e 9875 b03e f23d da3e a0e6 693e
00000040: 74cc 153e 3343 a83d 0955 c23e 2a61 10bb
00000050: c870 943e 6546 c53e b185 d83e a7b0 ff3e
00000060: dd23 ec3e bb13 883e 4049 673d 448f 713e
00000070: dbee e83c f848 833e 58fc 0e3d 1547 133e
00000080: 5a3e 813e c847 99be e0ce 243e e182 af3d
00000090: 712d 0c3d 476b 803f b494 7e3e 3e94 4a3e
0.30335546 0.41230664 0.16307358 0.07038737 -0.1510962 -0.0017145224 0.06822208 0.2025817
0.18492067 0.06011836 0.16208354 0.34856418 0.29519194 0.34464717 0.42625386 0.22841883
0.14628774 0.08215942 0.37955502 -0.002203057 0.28992295 0.3853027 0.42289498 0.49939463
0.46121112 0.26577553 0.05646634 0.23589808 0.028434208 0.25641608 0.034908623 0.14382584
0.25242883 -0.29937577 0.16094542 0.08569885 0.034223024 1.0032738 0.24861413 0.19783112
