Reinforcement Learning/homework/作业二_FightingGame/格斗游戏大作业_提交/RL_fightinggame/checkpoints/DQN/ZEN/best-195.pth (torch, 120274 bytes, 6 tensors)

fc1.weight f4 [128, 144]
-0.32343137 -0.62269443 -0.04933662 -0.06200765 0.1076487 -0.21036954 0.1238682 -0.18600924
0.0055645388 -0.07007164 -0.11077167 0.040929846 0.03150427 -0.5277484 -0.786131 -0.1248256
0.4375267 -0.06660876 -0.062334314 -0.629641 0.25004548 0.31390142 0.03690232 0.06126389
-0.05662915 0.0329126 0.09595589 0.106817156 0.07491992 0.057672776 0.024445875 -0.17586735
-0.42994556 -0.12675893 -0.038303018 -1.0577314 -0.44982108 -0.1895232 0.16331056 0.16021968
-0.6936078 -0.3055037 0.19448225 0.49410117 -0.53260195 -0.39681074 -0.15242395 0.040428486
0.40480343 -0.20084047 -0.12265692 0.1161971 0.17557001 -1.0743426 0.18796816 -0.39279723
-0.25639462 -0.1855021 0.33177406 -0.009616018 -0.0063522416 -0.3589293 -0.16954151 -0.4835393
0.05344627 -0.297734 -0.08502809 -0.11574725 0.029891893 -0.34641233 0.42676818 -0.032521185
0.051834747 -0.11641851 0.0027888005 0.0020065084 0.4995825 -0.08799461 -0.1573633 -0.5880274
0.50296164 -0.08481303 -0.24636644 -0.001962601 -0.3367236 -0.08255987 0.22383204 -0.065225616
-0.14188486 0.058092438 0.015258677 -0.762584 0.14665473 -0.5511504 -0.21168575 -0.1499175
-0.02039473 -0.3437553 -0.557624 0.19517536 -0.14876041 -0.0476804 -0.5348979 0.285892
0.16034125 0.47695053 -0.37305355 -0.3331074 -0.06915341 0.0038580317 -0.83923554 -0.05059905
-0.022779936 -0.18762596 -0.35977232 0.20354831 -0.068001166 0.27728277 -0.51805675 -0.24631709
-0.31378448 0.29002163 0.048022233 -0.4816141 -0.11823019 0.16855188 0.059635617 -0.40757346
-0.090287186 -0.009678261 0.42776302 0.2611581 0.27620977 0.8353499 -0.04927353 0.11466219
0.13247019 0.10668283 0.4083773 0.49502566 -0.24188462 -0.21531929 -0.25354064 -0.3302353
0.48919016 0.20111947 -0.021885745 -0.5187745 -0.14994656 0.10038654 -0.043674532 -0.2973917
-0.0065118233 0.057455204 -0.41598004 -0.36856383 -0.29540154 -0.14273882 0.10654255 0.16779262
-0.35092232 0.07127669 -0.07227406 -0.12436779 0.09536382 0.18782978 -0.31340176 -0.108378194
-0.031451784 -0.035940796 -0.3264 -0.30265743 0.057367496 -0.02863437 -0.023569748 -0.33864948
0.53953046 -0.17305876 0.17509499 -0.33743778 -0.16496807 0.16669518 -0.10346232 0.3999254
0.5869605 -0.1356099 -0.076409005 0.350091 0.1982354 -0.47340852 0.00536258 0.17204446
-0.3328093 -0.31603426 -0.23105048 -0.5437495 -0.20957182 -0.045946755 -0.2466213 0.15166193
-0.1301246 -0.27817756 0.70835096 -0.5145965 -0.03020176 -0.27102363 -0.17398076 -0.37637755
0.45541653 -0.23696323 0.33721885 -0.4876474 0.0051992266 -0.004330809 1.0436151 0.023946878
-0.7257634 0.11894135 0.019295376 0.060067706 -0.3716083 -0.10080519 -0.37289208 0.09050412
0.013070901 -0.057925034 -0.40185165 0.20205969 0.06126896 -0.03545595 0.04027511 -0.17808999
0.04011447 0.03515307 -0.005020626 0.0873348 -0.35809904 -0.24567492 -0.13025755 -0.21254727
0.13729249 -0.3649577 -0.14781079 -0.23517318 -0.0029359038 0.032094833 0.25571585 -0.5241757
-0.43697459 0.0013093458 0.29608363 0.057690606 -0.3730855 0.39213282 -0.090241484 -0.5154898
00000000: cc98 a5be e768 1fbf 3215 4abd bcfb 7dbd
00000010: ec76 dc3d 1d6b 57be 9cae fd3d 3579 3ebe
00000020: bc56 b63b b881 8fbd 42dc e2bd 0ea6 273d
00000030: 9f0a 013d 851a 07bf e23f 49bf 90a4 ffbd
00000040: 8003 e03e 2c6a 88bd 4452 7fbd 2730 21bf
00000050: f605 803e b0b7 a03e e326 173d d8ef 7a3d
00000060: f8f3 67bd 5dcf 063d 8684 c43d f4c2 da3d
00000070: 9d6f 993d 4a3a 6c3d b742 c83c 9216 34be
00000080: d321 dcbe 18cd 01be a0e3 1cbd be63 87bf
00000090: f34e e6be 5f12 42be e23a 273e a110 243e
000000a0: 4890 31bf fb6a 9cbe 5b26 473e d4fa fc3e
000000b0: 9a58 08bf c72a cbbe 0615 1cbe 5798 253d
000000c0: 6542 cf3e 20a9 4dbe 8d33 fbbd bff8 ed3d
000000d0: a0c8 333e 0f84 89bf ba7a 403e b81c c9be
000000e0: 2846 83be 43f4 3dbe 4ade a93e 818c 1dbc
000000f0: 7726 d0bb 95c5 b7be 4a9c 2dbe 7792 f7be
00000100: 7aea 5a3d 9770 98be 3523 aebd e50c edbd
00000110: d8df f43c f55c b1be 5c81 da3e ef34 05bd
00000120: ac50 543d d46c eebd 4fc4 363b a07f 033b
00000130: 47c9 ff3e 8536 b4bd d823 21be f788 16bf
00000140: 18c2 003f 74b2 adbd 7c47 7cbe fb9e 00bb
00000150: 0967 acbe 2615 a9bd 3a34 653e 0295 85bd
00000160: 444a 11be 56f2 6d3d 88ff 793c b438 43bf
00000170: a82c 163e 3118 0dbf 26c4 58be f983 19be
00000180: d912 a7bc b200 b0be 72c0 0ebf 0ddc 473e
00000190: a654 18be 864c 43bd 12ef 08bf 7060 923e
000001a0: 7f30 243e dc32 f43e e000 bfbe 0e8d aabe
000001b0: 4ea0 8dbd 08d7 7c3b 24d8 56bf f340 4fbd
000001c0: fd9c babc 0521 40be 1434 b8be f86e 503e
000001d0: 3244 8bbd 02f8 8d3e 5e9f 04bf 8c3a 7cbe
000001e0: 5ca8 a0be b77d 943e f6b2 443d 2096 f6be
000001f0: ab22 f2bd dd98 2c3e 7a44 743d 78ad d0be
00000200: 7de8 b8bd 9291 1ebc c103 db3e 84b6 853e
00000210: 5e6b 8d3e 7ed9 553f 0ad3 49bd 03d4 ea3d
00000220: 44a6 073e 877c da3d d416 d13e 0174 fd3e
00000230: 9ab0 77be a97c 5cbe 14d0 81be 9a14 a9be
00000240: 2277 fa3e 43f2 4d3e bc49 b3bc 68ce 04bf
00000250: 978b 19be 7597 cd3d 11e4 32bd ba43 98be
00000260: 2261 d5bb 2656 6b3d 56fb d4be 66b4 bcbe
00000270: df3e 97be 202a 12be fb32 da3d d4d1 2b3e
00000280: 17ac b3be 83f9 913d 6c04 94bd 8ab4 febd
00000290: 1b4e c33d 7356 403e 3276 a0be 63f5 ddbd
000002a0: 96d3 00bd a836 13bd e71d a7be eaf5 9abe
000002b0: 2efa 6a3d a092 eabc 5815 c1bc 7763 adbe
000002c0: ab1e 0a3f 5136 31be 1a4c 333e a5c4 acbe
000002d0: 64ed 28be 24b2 2a3e 0ee4 d3bd 06c3 cc3e
000002e0: 0b43 163f 52dd 0abe 537c 9cbd 213f b33e
000002f0: 38fe 4a3e 9a62 f2be 95b8 af3b 6c2c 303e
00000300: fb65 aabe 3ecf a1be 7f98 6cbe 2b33 0bbf
00000310: ff99 56be aa32 3cbd 4b8a 7cbe 444d 1b3e
00000320: 623f 05be 4a6d 8ebe 7d56 353f 99bc 03bf
00000330: ae69 f7bc 9cc3 8abe 0328 32be 8fb4 c0be
00000340: 5b2c e93e 7da6 72be f3a7 ac3e ecac f9be
00000350: 465e aa3b 76e9 8dbb 2e95 853f 3e2c c43c
00000360: a1cb 39bf 8697 f33d 5611 9e3c 8e09 763d
00000370: 7143 bebe f472 cebd b6eb bebe 395a b93d
00000380: 5527 563c cd42 6dbd 80bf cdbe bce8 4e3e
00000390: 29f5 7a3d 423a 11bd 84f7 243d 395d 36be
000003a0: 124f 243d aafc 0f3d 1084 a4bb 96dc b23d
000003b0: c258 b7be 3592 7bbe 3c62 05be fea5 59be
000003c0: 6796 0c3e bcdb babe b65b 17be 3dd1 70be
000003d0: 4b68 40bb df75 033d 30ed 823e 6130 06bf
000003e0: 22bb dfbe 5b9e ab3a 4698 973e fc4c 6c3d
000003f0: 1005 bfbe a2c5 c83e 87d0 b8bd 24f7 03bf

fc1.bias f4 [128]
-0.0062714224 -0.08069608 -0.09393763 0.09584161 0.012037216 -0.1319203 -0.20889826 -0.0038070648
0.01662959 0.011149525 -0.08453975 0.0049663354 -0.06428651 -0.056041613 -0.0965144 -0.110398695
-0.08298095 -0.20940602 0.25390568 -0.25812188 -0.17150606 -0.0013330433 0.031272013 0.10650143
-0.016231764 -0.07134459 -0.18896492 -0.24803273 0.14322442 0.16739655 -0.12805282 -0.00021378485
-0.16247268 -0.0048593986 -0.056044444 -0.066142865 0.17499514 -0.05715189 -0.07766615 -0.14423843
-0.019555932 -0.04403429 0.21126269 0.012721569 -0.13133404 0.07665282 -0.12415763 0.021157173
-0.038073003 -0.045414653 0.0036859887 -0.06569492 0.084628776 -0.101899534 0.013630307 -0.07133285
0.03931595 -0.051050004 -0.06348017 -0.025404759 -0.1063986 0.110564254 -0.0573526 -0.03019911
-0.17591634 -0.11202536 0.045880005 -0.20233034 -0.055221535 -0.15996163 -0.06404993 -0.09931366
-0.21832904 -0.20458196 -0.04436258 0.06332274 -0.11235667 -0.075876415 0.005870105 -0.11105297
-0.07398564 -0.05979112 -0.14964405 -0.0551233 -0.13173765 -0.12732603 -0.110251196 -0.30616125
-0.12025279 -0.09613565 0.077092305 0.011063193 -0.07034591 -0.026468474 -0.04545948 -0.22388746
-0.03485896 -0.16411082 0.01814776 0.14370534 -0.1298028 -0.11420545 -0.073503226 0.06532953
0.022269074 0.047225874 -0.068518505 -0.12254372 -0.08390725 -0.19463469 0.24382493 0.16397701
-0.15418981 -0.22124073 -0.066963546 0.052405894 -0.050793838 0.21489806 -0.011604113 -0.07813817
-0.0017248641 -0.24482666 -0.08477074 -0.11760019 -0.1842207 0.026512215 -0.0945233 -0.011902541
00000000: 8180 cdbb fd43 a5bd 5f62 c0bd 9b48 c43d
00000010: be37 453c 1d16 07be 6de9 55be f37f 79bb
00000020: c73a 883c 7fac 363c 2d23 adbd a4bc a23b
00000030: a5a8 83bd e48b 65bd 57a9 c5bd b618 e2bd
00000040: ebf1 a9bd 886e 56be edff 813e 8d28 84be
00000050: 499f 2fbe 83b9 aeba 1517 003d 6c1d da3d
00000060: 7af8 84bc 1d1d 92bd 0580 41be 4bfc 7dbe
00000070: 6ca9 123e 006a 2b3e 4720 03be 6f2b 60b9
00000080: 3d5f 26be 973b 9fbb dc8e 65bd e975 87bd
00000090: ed31 333e 1a18 6abd 6e0f 9fbd 3db3 13be
000000a0: c333 a0bc 4d5d 34bd 3f55 583e 216e 503c
000000b0: 6e7c 06be 27fc 9c3d 5b46 febd cf51 ad3c
000000c0: 70f2 1bbd b704 3abd a190 713b 0f8b 86bd
000000d0: da51 ad3d b4b0 d0bd a751 5f3c f516 92bd
000000e0: c309 213d cf19 51bd e401 82bd a41d d0bc
000000f0: 82e7 d9bd 836f e23d 8fea 6abd 2064 f7bc
00000100: 6a23 34be 8d6d e5bd acec 3b3d af2f 4fbe
00000110: fa2f 62bd fbcc 23be 9c2c 83bd f664 cbbd
00000120: a691 5fbe ef7d 51be 89b5 35bd 5aaf 813d
00000130: 411b e6bd 1865 9bbd 025a c03b bd6f e3bd
00000140: c985 97bd 89e7 74bd 4a3c 19be f8c8 61bd
00000150: 3ce6 06be c161 02be 61cb e1bd 2bc1 9cbe
00000160: 1847 f6bd c5e2 c4bd 92e2 9d3d 6542 353c
00000170: 8411 90bd 6ad4 d8bc b833 3abd c142 65be
00000180: 45c8 0ebd ab0c 28be 9caa 943c 7e27 133e
00000190: 06eb 04be 8ce4 e9bd dc88 96bd 7dcb 853d
000001a0: a26d b63c eb6f 413d 6e53 8cbd 34f8 fabd
000001b0: 90d7 abbd 514e 47be 3ead 793e 97e9 273e
000001c0: efe3 1dbe ee8c 62be 2f24 89bd 90a7 563d
000001d0: 330d 50bd 3d0e 5c3e 2d1f 3ebc e806 a0bd
000001e0: d614 e2ba d7b3 7abe 489c adbd 5ed8 f0bd
000001f0: 5aa4 3cbe 2530 d93c 6f95 c1bd e002 43bc

fc2.weight f4 [64, 128]
-0.61104465 0.5591432 0.6570699 -0.014976222 0.10247795 0.24708192 -1.1168308 0.3920713
0.112337686 0.42735064 -0.15100496 0.26600808 0.1705741 -1.6580513 -0.12352222 0.41701806
0.029804094 0.77071416 -0.54111093 0.42548048 -0.10975275 0.11527485 0.33365425 0.6347354
-0.16657068 -0.4490494 0.6656722 -0.06260617 -0.31029245 -0.20842044 0.35929668 -0.120834924
1.0465418 0.24127416 -0.42084953 0.08245575 0.18050684 -0.028026626 -0.047179125 0.39789286
0.14130369 0.0065842685 -0.06786105 0.05454552 0.074792586 0.18068306 0.1696316 -0.068162516
0.14828861 0.20860739 0.36024806 -0.61261386 -0.2220784 -0.167152 0.09720573 0.011676686
-0.33081546 0.6761163 0.7219978 -1.2031171 0.07379136 -0.2000691 -0.7939072 0.53096426
-0.2372172 0.34568176 -0.14888749 0.2567612 -0.1994018 0.07114995 -0.08151916 0.020785656
0.36608094 0.031657517 0.23929977 0.03931346 -0.058874328 -0.037899863 0.0831783 0.46247172
-0.16116539 0.15798694 0.5974728 0.30178425 -0.12555765 0.3050644 0.119352594 -0.33892366
0.14542647 0.032102987 0.09884731 -0.13467456 -0.006409814 -0.1923404 -0.07789721 0.084429935
0.0010016524 -0.31077224 0.1682027 -0.37442642 0.4832797 0.025862707 -0.2642032 -0.23236413
-0.2990296 0.2462237 -0.8561837 0.1906683 0.5995681 0.21688427 -0.6415679 -0.9252865
-0.20526092 -0.026125873 -0.2503948 0.1988182 -0.51725966 -0.25772116 -0.1324771 -0.19037183
-0.04166463 0.01615854 0.34855062 0.3007397 -0.29976058 -0.55792904 0.12074239 0.5033303
0.27387628 0.695366 -0.034408633 -0.060963295 -0.4135717 0.027341349 -0.64409107 -0.22792819
-0.026210232 -0.01945307 -0.074704856 -0.6437186 0.4701346 0.1988694 -0.09957703 0.15776128
0.0032047257 0.40118816 -0.28411245 -0.014630121 -0.24058653 -0.4674505 -0.036476713 -0.47069746
-0.12066191 0.010086074 0.31793782 -0.7989473 0.43703648 0.015036708 0.25449985 -0.35099697
0.1096618 0.04496091 -0.40666738 -0.0075680255 -0.76175517 0.234837 -0.21907039 -0.58945954
-0.2614602 -0.179302 -0.6203178 -0.3913071 0.46547526 -0.9536078 0.8050838 0.5677878
0.13353817 -0.31349105 0.06470334 -1.2709408 -0.9195557 -0.14199072 -0.47405547 -0.106344596
0.33730263 0.5897965 0.57105577 -1.1354834 0.3855143 -0.38963816 -0.32115817 0.32814568
0.07442426 0.22607218 -0.2050483 0.33843908 -0.45175907 0.70564836 -0.05934723 -0.32508078
0.6794945 0.3455493 0.38943386 -1.5612153 0.031746387 -0.28760195 0.033653226 0.46315783
0.18860698 -0.81056625 0.6360232 0.05035731 0.40547678 -0.39521867 -0.7227512 -0.03223869
0.26318008 0.08714137 -0.39013252 -0.023819055 0.6655093 0.16992672 0.0902533 -0.18860197
-0.32460707 -0.30938813 -0.6649824 -0.3615869 -0.12173468 -0.16953932 0.028777732 0.31162083
0.16684444 0.04505904 -0.20057864 0.078382105 -0.85261655 -0.62399656 0.41718927 -0.99704343
-0.20273878 -0.47287887 0.5887443 -0.3879552 -0.64764524 0.11240943 0.1372023 0.5321742
-0.5538734 0.6098083 -0.006697571 0.43580645 -0.335126 -0.74654156 0.33832684 0.13122685
00000000: 6c6d 1cbf 0224 0f3f bc35 283f d45e 75bc
00000010: f6df d13d 0b03 7d3e 50f4 8ebf 92bd c83e
00000020: 4d11 e63d b4cd da3e 0ba1 1abe 3632 883e
00000030: faaa 2e3e 063b d4bf 38f9 fcbd 6483 d53e
00000040: b727 f43c 864d 453f 3f86 0abf 94d8 d93e
00000050: 0dc6 e0bd 3815 ec3d bbd4 aa3e 057e 223f
00000060: 8191 2abe cee9 e5be 7e69 2a3f aa37 80bd
00000070: a7de 9ebe 2b6c 55be bcf5 b73e 4d78 f7bd
00000080: 15f5 853f 9310 773e 9779 d7be 8fde a83d
00000090: c9d6 383e 1898 e5bc e63e 41bd 9db8 cb3e
000000a0: eab1 103e d9c0 d73b bcfa 8abd 206b 5f3d
000000b0: db2c 993d fb04 393e e8b3 2d3e ca98 8bbd
000000c0: f8d8 173e 2d9d 553e 6f72 b83e 43d4 1cbf
000000d0: 8568 63be e529 2bbe cc13 c73d 924f 3f3c
000000e0: a560 a9be f515 2d3f d9d4 383f beff 99bf
000000f0: ed1f 973d eade 4cbe 813d 4bbf 46ed 073f
00000100: 11e9 72be 33fd b03e f675 18be 3476 833e
00000110: fc2f 4cbe 11b7 913d 84f3 a6bd ae46 aa3c
00000120: f66e bb3e 50ab 013d 000b 753e 2707 213d
00000130: 3526 71bd e33c 1bbd 6259 aa3d 18c9 ec3e
00000140: 8a08 25be 54c7 213e faf3 183f 7783 9a3e
00000150: 2f92 00be 6731 9c3e 226f f43d 6787 adbe
00000160: adea 143e 6c7e 033d 7570 ca3d 21e8 09be
00000170: 6b09 d2bb e2f4 44be 9388 9fbd 9ae9 ac3d
00000180: e149 833a 8a1d 9fbe 543d 2c3e d2b4 bfbe
00000190: 7070 f73e 07de d33c a445 87be ddf0 6dbe
000001a0: 681a 99be 1122 7c3e db2e 5bbf 8d3e 433e
000001b0: 4c7d 193f e916 5e3e cb3d 24bf 93df 6cbf
000001c0: eb2f 52be ed05 d6bc bf33 80be 0097 4b3e
000001d0: 216b 04bf 07f4 83be 14a8 07be d5f0 42be
000001e0: 88a8 2abd ea5e 843c 3a75 b23e 8efa 993e
000001f0: 387a 99be 70d4 0ebf c947 f73d 41da 003f
00000200: 8339 8c3e 8203 323f 11f0 0cbd a6b4 79bd
00000210: abbf d3be f7fa df3c 27e3 24bf 0266 69be
00000220: d7b6 d6bc 0b5c 9fbc dcfe 98bd beca 24bf
00000230: 7bb5 f03e 6ca4 4b3e 0bef cbbd 2c8c 213e
00000240: 6006 523b 8968 cd3e 3077 91be 2db3 6fbc
00000250: 515c 76be ac55 efbe 9b68 15bd 42ff f0be
00000260: 971d f7bd 0f40 253c bfc8 a23e cf87 4cbf
00000270: 3fc3 df3e 865c 763c ce4d 823e e0b5 b3be
00000280: 5e96 e03d ee28 383d b536 d0be 33fd f7bb
00000290: 6302 43bf 1c79 703e fd53 60be d2e6 16bf
000002a0: 1dde 85be f29a 37be 26cd 1ebf 6759 c8be
000002b0: c652 ee3e a41f 74bf f919 4e3f 8b5a 113f
000002c0: 3bbe 083e e681 a0be 2f83 843d 30ae a2bf
000002d0: 0168 6bbf 0466 11be 66b7 f2be 32cb d9bd
000002e0: eeb2 ac3e e7fc 163f b630 123f 8557 91bf
000002f0: 2162 c53e a77e c7be d86e a4be b602 a83e
00000300: bf6b 983d 777f 673e 2ef8 51be e347 ad3e
00000310: f74c e7be 5fa5 343f 1516 73bd fd70 a6be
00000320: 5af3 2d3f d6eb b03e e063 c73e e7d5 c7bf
00000330: 8008 023d 9040 93be f7d7 093d 0623 ed3e
00000340: 3022 413e 4581 4fbf 6bd2 223f 7743 4e3d
00000350: a79a cf3e 1a5a cabe 3906 39bf b70c 04bd
00000360: 8abf 863e 2d77 b23d 73bf c7be 2e20 c3bc
00000370: d15e 2a3f 4501 2e3e b9d6 b83d e020 41be
00000380: e632 a6be 1f68 9ebe 493c 2abf eb21 b9be
00000390: 0850 f9bd b79b 2dbe 47bf eb3c c48c 9f3e
000003a0: 45d9 2a3e d48f 383d 7d64 4dbe cc86 a03d
000003b0: 1445 5abf 3dbe 1fbf d599 d53e 3d3e 7fbf
000003c0: c19a 4fbe 2e1d f2be f2b7 163f 10a2 c6be
000003d0: 14cc 25bf ea36 e63d c27e 0c3e 923c 083f
000003e0: a6ca 0dbf 661c 1c3f 4c77 dbbb 0622 df3e
000003f0: a395 abbe 591d 3fbf 2d39 ad3e 5560 063e

fc2.bias f4 [64]
0.059370834 0.00054072443 0.23222297 0.092912205 0.29483905 0.09419891 0.33104926 0.35018504
0.29331234 -0.15883866 0.032817822 -0.023366844 0.3056949 0.37794083 -0.07021113 0.010025438
0.3070195 0.31583005 0.081390135 0.23693535 0.30878758 0.44394904 -0.024005273 -0.09442304
0.35441455 0.09047518 -0.026761288 0.2822766 0.24435993 0.29235905 0.21530595 0.17102169
0.36150163 0.20668 0.25959814 -0.089896254 0.3124667 0.022127785 0.24767849 0.24937853
0.13937148 -0.09109633 0.27220958 -0.06049117 -0.13662381 0.36401683 -0.038527593 -0.044230174
-0.074082464 0.17672335 0.2744669 0.08392739 0.26347592 0.2533476 -0.049756337 0.08721746
-0.011664722 -0.12088536 0.10334201 0.18307689 0.22779377 0.19493832 -0.090583704 -0.09081114
00000000: d52e 733d 67bf 0d3a dccb 6d3e c148 be3d
00000010: 25f5 963e 5ceb c03d 4a7f a93e 744b b33e
00000020: 092d 963e 9aa6 22be fb6b 063d d36b bfbc
00000030: 0b84 9c3e 7681 c13e daca 8fbd bc41 243c
00000040: a931 9d3e 7ab4 a13e dfaf a63d 2e9f 723e
00000050: 6819 9e3e 4a4d e33e b5a6 c4bc de60 c1bd
00000060: d375 b53e 0d4b b93d 7d3a dbbc 8f86 903e
00000070: 7d39 7a3e 16b0 953e 2a79 5c3e 4f20 2f3e
00000080: be16 b93e eca3 533e 0cea 843e 871b b8bd
00000090: a3fb 9f3e 5445 b53c 6e9f 7d3e 165d 7f3e
000000a0: 66b7 0e3e b690 babd 0e5f 8b3e 97c5 77bd
000000b0: 1de7 0bbe 6a60 ba3e 1ccf 1dbd b32a 35bd
000000c0: 8cb8 97bd f7f6 343e ed86 8c3e 20e2 ab3d
000000d0: 51e6 863e c7b6 813e 4dcd 4bbd 119f b23d
000000e0: 641d 3fbc be92 f7bd faa4 d33d 8278 3b3e
000000f0: c542 693e e99d 473e f383 b9bd 31fb b9bd

fc3.weight f4 [40, 64]
0.47100276 0.04340921 -0.19798024 -0.058359686 0.010601659 0.37849686 -0.11186453 0.1350617
0.11580705 0.44148222 0.14923367 0.043112084 0.20496923 0.17549896 0.116177335 0.10471687
0.17445381 0.0799289 0.0882637 0.70423263 0.60330117 0.62120235 -0.09980637 -0.03402385
-0.0712595 0.49109867 0.035914093 0.10676658 0.80535716 0.051493563 0.14769925 0.24624878
-0.008058475 -0.08889146 0.10509368 -0.13986965 0.50919473 0.005460905 0.37340584 0.076555625
0.42179337 -0.9079165 -0.089382485 0.61525387 0.011678148 0.4172931 -0.8170899 -0.54458886
-0.050320953 -0.3584292 0.06369567 0.26414248 0.20183708 0.3696152 -0.31968918 0.24071962
0.32808882 0.13203618 0.4604316 0.08351325 0.2890788 0.05724875 0.1779264 0.08639004
0.2911693 -0.023235185 0.02269408 0.024550721 0.14083461 0.5832196 -0.05453344 0.29899025
0.06036372 0.06960776 0.16100137 0.058882684 0.30514994 0.14099443 0.0070091337 0.07863411
0.3299994 0.20239136 0.22168717 0.2262994 -0.060270116 0.35217482 0.06817956 -0.054754823
0.008153869 0.24983141 -0.023435963 0.30203623 0.4242928 0.14063656 0.052807555 0.12010389
0.27248803 0.21853654 -0.004604171 -0.064804226 0.1951496 0.18990114 0.14747076 0.2752187
-0.05611701 0.43708423 0.21566974 -0.26962805 0.56524277 0.34459186 -0.10007453 0.4502822
-0.037279055 0.21801299 0.04514941 0.19924879 0.23932073 0.20486493 0.20240769 0.28252712
-0.052592333 0.25816384 0.34606475 0.6914831 0.077655956 -0.028223617 0.065287344 -0.0036180345
-1.1347703 -0.015962292 0.13569388 0.11279999 0.2669738 0.017919132 0.22735459 0.005986747
0.028930742 0.13548437 0.4399902 0.083497494 0.040071312 0.52381474 -0.032937914 0.06612323
0.22884913 0.4349401 0.38969684 0.02583934 -0.07277883 0.15013672 -0.019236818 0.11263473
0.20886883 0.19221431 0.120656684 -0.4518193 0.28137794 -0.0053323465 -0.1097031 0.07695853
0.049791098 -0.09490263 0.42503235 0.46139038 0.30737507 -0.009705904 0.20275524 0.24512608
-0.51520616 -1.2062304 0.21902311 0.5332384 0.46186626 0.1888377 -0.67885906 -0.07881219
-0.06157733 0.3094385 0.2293086 0.091789395 0.43735522 0.14886162 -0.14240408 0.3575697
-0.51578176 0.42061338 0.6391783 0.4566446 -0.2118153 0.13972087 -0.40272546 0.09886874
0.027230563 -0.8426056 -1.3488249 -0.37763217 0.026368465 -0.3958569 0.06630304 0.19219492
0.18646325 0.43060523 -0.09187402 0.11378802 0.1735388 0.46353847 0.0013574809 -0.025574759
0.05214302 0.2330086 -0.22179179 0.043501496 0.0550195 0.44681916 0.034877375 0.0068667084
0.21376412 0.29029897 0.055391163 0.91471624 0.21275724 0.14272948 0.87586725 0.30608946
0.343798 0.19870572 0.3050458 0.08061205 -1.4425479 0.8968916 0.02825653 0.02107006
0.7667043 0.3012479 0.21054552 -0.040857527 -0.08493229 0.12240186 0.08002936 -0.10591392
-0.056267396 1.0075024 0.331833 0.18618755 0.26650017 0.110067345 -0.6561683 -0.46502936
-0.67524076 0.51097727 -0.5806538 0.036450196 0.31743658 0.26762787 0.33492324 0.056947894
00000000: 4627 f13e dbcd 313d 55bb 4abe 910a 6fbd
00000010: 95b2 2d3c 57ca c13e 3b19 e5bd 9d4d 0a3e
00000020: 3f2c ed3d f509 e23e b6d0 183e 4c96 303d
00000030: 74e3 513e 00b6 333e 62ee ed3d cc75 d63d
00000040: 05a4 323e c3b1 a33d 99c3 b43d 9748 343f
00000050: f271 1a3f 1e07 1f3f 4867 ccbd 985c 0bbd
00000060: 80f0 91bd 4971 fb3e a81a 133d 70a8 da3d
00000070: e32b 4e3f eaea 523d 793e 173e a428 7c3e
00000080: b207 04bc ba0c b6bd 5b3b d73d fd39 0fbe
00000090: 965a 023f 64f1 b23b 0d2f bf3e 32c9 9c3d
000000a0: 4df5 d73e 376d 68bf 2a0e b7bd 4781 1d3f
000000b0: b455 3f3c 71a7 d53e ce2c 51bf 2d6a 0bbf
000000c0: 581d 4ebd 0884 b7be e072 823d af3d 873e
000000d0: 61ae 4e3e 343e bd3e 4dae a3be 347f 763e
000000e0: 42fb a73e 7e34 073e b1bd eb3e ff08 ab3d
000000f0: 2302 943e aa7d 6a3d 5732 363e 43ed b03d
00000100: 2414 953e b757 bebc efe8 b93c 981e c93c
00000110: f336 103e e14d 153f 755e 5fbd 4015 993e
00000120: f33f 773d 838e 8e3d 8bdd 243e f82e 713d
00000130: 9d3c 9c3e d860 103e e0ac e53b ec0a a13d
00000140: aef5 a83e ae3f 4f3e f601 633e 08bb 673e
00000150: ccdd 76bd 4250 b43e baa1 8b3d 9846 60bd
00000160: ce97 053c ced3 7f3e c7fc bfbc 7ea4 9a3e
00000170: e83c d93e 0803 103e bc4c 583d 07f9 f53d
00000180: 8d83 8b3e 0bc8 5f3e 96de 96bb 14b8 84bd
00000190: 4cd5 473e 7275 423e 9302 173e 77e9 8c3e
000001a0: f3da 65bd 81c9 df3e 87d8 5c3e b00c 8abe
000001b0: c0b3 103f 586e b03e e0f3 ccbd 638b e63e
000001c0: ecb1 18bd cc3e 5f3e 96ee 383d e007 4c3e
000001d0: 7e10 753e 1dc8 513e f643 4f3e 65a7 903e
000001e0: 0f6b 57bd 0d2e 843e 662f b13e 0905 313f
000001f0: 160a 9f3d 3735 e7bc 5fb5 853d 8c1c 6dbb
00000200: 2740 91bf 5ac3 82bc 56f3 0a3e ae03 e73d
00000210: cab0 883e 25cb 923c a4cf 683e 792c c43b
00000220: 2a00 ed3c 6abc 0a3e 6546 e13e bc00 ab3d
00000230: d121 243d b918 063f e8e9 06bd 9e6b 873d
00000240: 6d57 6a3e 78b0 de3e 5886 c73e 06ad d33c
00000250: 110d 95bd 71bd 193e 8896 9dbc 0aad e63d
00000260: b6e1 553e d4d3 443e da1a f73d dc54 e7be
00000270: c510 903e f7ba aebb 05ac e0bd 6f9c 9d3d
00000280: c0f1 4b3d 4f5c c2bd d79d d93e 5c3b ec3e
00000290: 4460 9d3e 8305 1fbc 129f 4f3e 5502 7b3e
000002a0: 8de4 03bf c265 9abf 9847 603e 5082 083f
000002b0: bc79 ec3e ac5e 413e b5c9 2dbf 4968 a1bd
000002c0: 8338 7cbd b96e 9e3e e0cf 6a3e 14fc bb3d
000002d0: 06ed df3e 2e6f 183e 60d2 11be 6013 b73e
000002e0: 460a 04bf a35a d73e 30a1 233f 52cd e93e
000002f0: 1ce6 58be fd12 0f3e 0832 cebe b27b ca3d
00000300: a112 df3c 00b5 57bf 4ba6 acbf 0159 c1be
00000310: ae02 d83c c1ad cabe e3c9 873d bfce 443e
00000320: 39f0 3e3e 4a78 dc3e 7228 bcbd b209 e93d
00000330: 28b4 313e ea54 ed3e 80ed b13a 2882 d1bc
00000340: eb93 553d ce99 6e3e 631d 63be a02e 323d
00000350: 215c 613d 7bc5 e43e 94db 0e3d 2002 e13b
00000360: fbe4 5a3e 11a2 943e d8e1 623d d82a 6a3f
00000370: 09dd 593e ad27 123e d638 603f c2b7 9c3e
00000380: 4b06 b03e 8379 4b3e f72e 9c3e ee17 a53d
00000390: 69a5 b8bf b09a 653f 3d7a e73c 1e9b ac3c
000003a0: bc46 443f 2a3d 9a3e 3f99 573e 395a 27bd
000003b0: fbf0 adbd d4ad fa3d 6fe6 a33d 66e9 d8bd
000003c0: a478 66bd d7f5 803f 04e6 a93e f3a7 3e3e
000003d0: b672 883e fd6a e13d a5fa 27bf 5418 eebe
000003e0: 94dc 2cbf 68cf 023f baa5 14bf cd4c 153d
000003f0: 0c87 a23e 8506 893e 0f7b ab3e 3242 693d

fc3.bias f4 [40]
0.3292608 0.37540936 0.29536918 0.1458552 -0.12640162 -0.0012653039 0.18304154 0.18360102
0.09592634 0.007708331 0.28616443 0.21603547 0.14788198 0.2080821 0.4781033 0.2627397
0.08990344 0.06265896 0.5239632 -0.061848365 0.084507905 0.34514174 0.5488003 0.40312436
0.31031385 0.26314184 0.026871974 0.27397096 -0.026182147 0.32535386 0.16480348 0.1069718
0.1639357 -0.11837286 0.13061398 0.08955177 0.061200254 0.80322635 0.2117208 0.11659461
00000000: df94 a83e a835 c03e a13a 973e 115b 153e
00000010: 6d6f 01be 8ed8 a5ba 3e6f 3b3e e801 3c3e
00000020: 0775 c43d 2b96 fc3b 2584 923e 6738 5d3e
00000030: 606e 173e 7913 553e f5c9 f43e d185 863e
00000040: 4b1f b83d 5753 803d 7422 063f b654 7dbd
00000050: 7b12 ad3d 6bb6 b03e 2d7e 0c3f 5166 ce3e
00000060: 75e1 9e3e 87ba 863e 9d22 dc3c ec45 8c3e
00000070: f17b d6bc c894 a63e 3ec2 283e 0814 db3d
00000080: c3de 273e 786d f2bd acbf 053e eb66 b73d
00000090: 1ead 7a3d 3ea0 4d3f 56cd 583e 28c9 ee3d
