Reinforcement Learning/homework/作业二_FightingGame/格斗游戏大作业_提交/RL_fightinggame/checkpoints/DQN/ZEN/best-77.pth (torch, 119944 bytes, 6 tensors)

fc1.weight f4 [128, 144]
0	0xbe5c29af	-0.21500276
1	0xbf0ee225	-0.5581382
2	0xbc1a3703	-0.00941253
3	0x3e261c09	0.16221632
4	0x3bbe9242	0.005815775
5	0xbdc97446	-0.098366305
6	0x3deae40b	0.11469277
7	0xbe972731	-0.29522088
8	0x3d0b36ce	0.033987813
9	0xbd8f81b8	-0.07007164
10	0xbdc62936	-0.09675829
11	0xbe717e35	-0.235833
12	0x3dac307b	0.084076844
13	0xbef2f402	-0.47451788
14	0xbed2d0c8	-0.41174912
15	0xbe1ed42e	-0.15510628
16	0x3ebadbd8	0.36495852
17	0x3c7eeae8	0.015558936
18	0xbe3a9f8e	-0.18224928
19	0xbd851ca7	-0.064996056
20	0x3e4f94ce	0.20271608
21	0xbc9e60be	-0.01933324
22	0x3ddfe9e5	0.10933284
23	0xbd6fb63c	-0.0585234
24	0xbd67f3f8	-0.05662915
25	0x3dabd126	0.08389501
26	0x3e8a4e2d	0.27012768
27	0xbdeb90e6	-0.115022466
28	0x3d996f9d	0.07491992
29	0x3d6c3a4a	0.057672776
30	0x3d588ccb	0.052868646
31	0x3e083e42	0.13305
32	0xbf099aa8	-0.5375161
33	0x3eef1726	0.46697348
34	0xbc146de8	-0.009059407
35	0xbef394ef	-0.47574565
36	0xbe915e67	-0.28392336
37	0xbed985aa	-0.4248479
38	0xbb5717bc	-0.0032820543
39	0xbe68a063	-0.22717433
40	0xbe9c4ae2	-0.3052588
41	0x3e2deb6d	0.16984339
42	0x3db4dfbf	0.08831739
43	0xbd67cb5a	-0.056590416
44	0xbd9ca359	-0.076483436
45	0xbdf7a0e3	-0.120912336
46	0x3d08a764	0.03336276
47	0xbdcc190b	-0.09965714
48	0x3e185a5d	0.14878221
49	0xbdfbf3b7	-0.12302344
50	0xbdabbfd4	-0.08386198
51	0x3ec9b753	0.39397678
52	0x3de30d81	0.1108656
53	0xbed6b0c1	-0.41931728
54	0x3d9b1ffc	0.0757446
55	0x3c0d34fb	0.008618589
56	0xbea2fffe	-0.31835932
57	0x3c6b379c	0.01435652
58	0x3ed45b84	0.4147607
59	0xbd5f9ab1	-0.054590885
60	0xbe84d315	-0.25942293
61	0xbe78ebfc	-0.24308771
62	0xbe037783	-0.12838559
63	0x3e2d3d4e	0.16917917
64	0xbed03e90	-0.4067273
65	0xbe9f1dab	-0.31077322
66	0x3dbdbb33	0.09264221
67	0x3d7b93f5	0.0614204
68	0x3dec55ba	0.115397885
69	0xbe90e259	-0.2829769
70	0x3ebf611f	0.37378785
71	0x3dac2533	0.08405533
72	0x3d3fb1c9	0.04680041
73	0xbe9d7bc3	-0.30758485
74	0x3dce20ec	0.10064873
75	0x3b037fa0	0.0020065084
76	0x3ec7b680	0.39006424
77	0xbd8396a2	-0.06425215
78	0xbe16c3fa	-0.14723197
79	0xbea65167	-0.3248398
80	0x3e10dc6a	0.14146581
81	0xbdb72330	-0.08942258
82	0xbebd377b	-0.3695639
83	0x3dc67e08	0.09692007
84	0xbedab0eb	-0.42713103
85	0xbdce7e6a	-0.10082705
86	0x3e914226	0.2837078
87	0xbd859502	-0.065225616
88	0xbda54537	-0.08069842
89	0x3d6df256	0.058092438
90	0x3c79ff88	0.015258677
91	0xbd19800d	-0.037475634
92	0x3e7454db	0.23860495
93	0x3e61f41d	0.22065778
94	0xbe11a82e	-0.14224312
95	0x3e629e43	0.22130685
96	0x3c688b91	0.0141934315
97	0xbe9ca492	-0.30594307
98	0xbf09f1cb	-0.5388457
99	0x3d1fb244	0.038988367
100	0xbe1854a6	-0.14876041
101	0x3e1d1c6c	0.15342873
102	0xbefda9e6	-0.49543685
103	0x3e9e0b67	0.30868074
104	0x3e63c2d8	0.22242296
105	0x3e329d10	0.17442727
106	0xbe249802	-0.16073611
107	0xbf0243f7	-0.50884956
108	0xbebf6bad	-0.37386838
109	0xbdea1dd4	-0.114314705
110	0xbf1b69a3	-0.60708064
111	0x3d018d94	0.03162916
112	0xbdd71fd8	-0.105041206
113	0xbddb5e1a	-0.10711308
114	0xbe19427b	-0.14966767
115	0xbdaaf7b1	-0.08348025
116	0xbe7f6a3c	-0.24942869
117	0x3c4ce154	0.012504894
118	0xbed356f5	-0.4127728
119	0xbe339df0	-0.17540717
120	0xbea4831e	-0.32131284
121	0x3e4ebe84	0.20189863
122	0x3cdeee16	0.027213138
123	0xbe91fb71	-0.28512147
124	0xbe025d5b	-0.12730925
125	0x3da8ab20	0.082357645
126	0x3de0f75e	0.109846815
127	0xbece2346	-0.40261286
128	0xbde6ded0	-0.11272967
129	0x3da0ef16	0.07858102
130	0x3ea2f538	0.31827712
131	0x3e2915bd	0.16512199
132	0xbe5b202d	-0.21398993
133	0x3ed0d11b	0.40784535
134	0xbda1d624	-0.07902172
135	0xbe039b17	-0.12852131
136	0x3deb9121	0.115022905
137	0xbde17f2c	-0.11010584
138	0x3f002f85	0.5007251
139	0x3f28e5ac	0.6597545
140	0xbd9b990d	-0.075975515
141	0xbe82915e	-0.2550153
142	0xbea4c20c	-0.32179296
143	0xbec0880e	-0.376038
144	0x3e5103e5	0.20411642
145	0x3ea54ee4	0.3228675
146	0x3ce95ba8	0.028486088
147	0xbed31819	-0.41229323
148	0xbdffd44c	-0.12491664
149	0x3dbdd372	0.092688456
150	0x3c8100ca	0.015747447
151	0xbe541ab5	-0.20713313
152	0x3c91eac6	0.017812144
153	0x3d6b5626	0.057455204
154	0xbccf7960	-0.02532643
155	0xbb8ff95e	-0.0043937406
156	0xbe7eda8d	-0.24888058
157	0x3def8fc0	0.1169734
158	0x3c01232b	0.00788192
159	0x3e550817	0.20803867
160	0x3e23707c	0.15960878
161	0xbe13ee96	-0.14446482
162	0x3e28828c	0.1645605
163	0xbe3aff73	-0.18261509
164	0x3ea245ea	0.31693965
165	0x3ea2995d	0.31757632
166	0x3de4dfcc	0.11175498
167	0x3dfbacaa	0.122887924
168	0xbd00d396	-0.031451784
169	0xbe7d580e	-0.24740621
170	0xbd44d852	-0.04805786
171	0xbe484568	-0.19557726
172	0x3d6afa2e	0.057367496
173	0xbcea92a0	-0.02863437
174	0x3a45b9ac	0.0007542621
175	0x3c179bff	0.009253501
176	0x3ee70fba	0.45129186
177	0xbdaf28e0	-0.08552718
178	0xbe150892	-0.1455405
179	0xbe05b06f	-0.13055585
180	0x3d8aedcb	0.06783637
181	0x3dd7be02	0.10534288
182	0xbe4df0e8	-0.2011143
183	0x3eec3530	0.4613433
184	0x3ea85db4	0.3288399
185	0x3d171cbd	0.03689264
186	0x3e14981f	0.14511155
187	0xbd9ee3cd	-0.07758293
188	0x3d25cd43	0.040478956
189	0xbd7925a0	-0.060826898
190	0xbd837279	-0.06418318
191	0x3c487bff	0.012236594
192	0x3c76a87f	0.015054821
193	0xbef1205d	-0.47095004
194	0xbe55e93b	-0.20889752
195	0xbebe1779	-0.37127283
196	0xbde0caee	-0.10976206
197	0xbe95f684	-0.2928964
198	0x3db0f695	0.08640782
199	0xbe2045ca	-0.15651622
200	0xbe4d9cc1	-0.20079328
201	0xbe8ecc1e	-0.27890104
202	0x3efd0d9c	0.49424446
203	0xbd3b3a27	-0.045709755
204	0xbf0bf94b	-0.54677266
205	0xbd1acf23	-0.037795197
206	0x3b3c20c4	0.0028706053
207	0xbefd96ee	-0.49529213
208	0x3ed2ded0	0.41185617
209	0xbce6fac0	-0.028195739
210	0x3d68bb48	0.05681923
211	0xbf012185	-0.5044177
212	0x3d312232	0.0432455
213	0x3de7259c	0.1128647
214	0x3f2c50b9	0.67310673
215	0x3caeb4a8	0.021326378
216	0xbefc9423	-0.4933177
217	0x3e279f39	0.16369332
218	0xbd994ab0	-0.07484949
219	0x3d76098e	0.060067706
220	0xbe4948a7	-0.19656621
221	0xbd401760	-0.046897292
222	0xbe789715	-0.24276383
223	0x3e881e52	0.26585633
224	0xbd42bfd9	-0.04754624
225	0xbe05595f	-0.13022374
226	0xbeacaf61	-0.33727553
227	0xbd823160	-0.06357074
228	0xbc6cab6b	-0.014445166
229	0x3bd8f911	0.006621488
230	0x3cacb49b	0.021082213
231	0xbe1bf671	-0.15230729
232	0x3d244f12	0.04011447
233	0x3d0ffcaa	0.03515307
234	0xbba48410	-0.005020626
235	0x3e08c067	0.13354646
236	0xbd27ab17	-0.04093465
237	0xbc7b5b41	-0.015341581
238	0xbe19f2a8	-0.15033972
239	0xbdc924fa	-0.09821506
240	0x3c16f5f7	0.009213916
241	0xbe7b2a7a	-0.24527922
242	0xbe7eda64	-0.24887997
243	0xbe82921e	-0.25502104
244	0xbcb412c0	-0.021981597
245	0x3e8709a0	0.2637453
246	0x3e3a6002	0.18200687
247	0xbea2af0a	-0.3177417
248	0xbedfbb22	-0.43697459
249	0xbdcee1b1	-0.10101641
250	0x3e9d7049	0.3074973
251	0x3e6ecc04	0.23320013
252	0xbd7b22b9	-0.06131241
253	0x3ea2f60a	0.31828338
254	0x3ecb55cb	0.39713892
255	0xbec238dd	-0.37934008

fc1.bias f4 [128]
0	0x3ce7d734	0.028300859
1	0xbd560e64	-0.052259818
2	0xbb8ec9ad	-0.0043575377
3	0x3dc22f96	0.094817325
4	0x3d94a8d0	0.07258761
5	0xbc8e334d	-0.017358446
6	0xbe01808a	-0.1264669
7	0x3b09da37	0.0021034607
8	0x3d85df07	0.0653668
9	0x3db4beff	0.08825492
10	0xbc5b4af6	-0.013384571
11	0xbc31ee49	-0.010860034
12	0xbc841ffb	-0.01612853
13	0x3d27c85d	0.040962566
14	0xbd82f903	-0.063951515
15	0xbd5768d1	-0.052590195
16	0xbca6af14	-0.020347156
17	0xbe1465a1	-0.14491893
18	0x3e7b7d66	0.24559554
19	0xbe49de1f	-0.19713639
20	0xbdea67b0	-0.11445558
21	0x3d93fc00	0.072257996
22	0x3dbb1043	0.09133961
23	0x3dbb808a	0.09155376
24	0x3dac98dd	0.08427594
25	0xbd220fca	-0.03956584
26	0xbdd6bbe8	-0.10485059
27	0xbe3236d1	-0.17403723
28	0x3e1d5028	0.15362608
29	0x3e1947d6	0.1496881
30	0xbda512e5	-0.080602445
31	0x3d2b19cd	0.041772652
32	0xbc9e55ee	-0.019328084
33	0x3d00e4dd	0.03146826
34	0xbc47446a	-0.012162307
35	0x3d0a26db	0.03372846
36	0x3e1ab5a8	0.15108359
37	0xbc8e0990	-0.017338544
38	0xbd164a1e	-0.036691777
39	0xbd852399	-0.0650093
40	0xbbe8ba51	-0.007102289
41	0xba8a501f	-0.0010552442
42	0x3e3506aa	0.17678323
43	0x3ce99be9	0.028516727
44	0xbc36fdfd	-0.011168954
45	0x3d833ad7	0.06407707
46	0xbd9bf564	-0.07615164
47	0x3d7f30f7	0.062302556
48	0x3c51b746	0.012800043
49	0x3d42e033	0.047577094
50	0x3d0cb604	0.03435327
51	0xbc89d94d	-0.01682725
52	0x3d944dd6	0.072414085
53	0xbbc446b3	-0.0059898733
54	0x3d140563	0.03613795
55	0xbcf01c5e	-0.029310402
56	0x3ddaeb0a	0.106893614
57	0xbc98e250	-0.018662602
58	0xbbbe2483	-0.0058026924
59	0x3d93608c	0.07196149
60	0xbdc1f830	-0.09471166
61	0x3da3fdae	0.0800737
62	0x3c179d64	0.009253833
63	0xbcbdda27	-0.023175312
64	0xbe112b28	-0.14176619
65	0xbcddfafd	-0.02709722
66	0x3e0fc5f7	0.14040361
67	0xbe0b76d7	-0.13619553
68	0x3d0b0e8f	0.03394943
69	0xbce0782d	-0.027401054
70	0xbd27bcb0	-0.04095143
71	0xbb6584fa	-0.0035021887
72	0xbdbb47c7	-0.0914455
73	0xbe02f0e5	-0.12787206
74	0x3d717ab5	0.058954913
75	0x3cbbe575	0.022936562
76	0xbde3cdfb	-0.11123272
77	0xbcf6107e	-0.030037161
78	0x3cb5997b	0.022167912
79	0xbd837d30	-0.06420362
80	0xb890652e	-6.885301e-05
81	0x3d5755af	0.05257195
82	0xbdc98ceb	-0.09841331
83	0x3daac55d	0.08338425
84	0xbd7c528e	-0.061602168
85	0xbdc1c1aa	-0.094607666
86	0xbc9bfd26	-0.019041609
87	0xbe3900c9	-0.18066706
88	0xbcb521ea	-0.022110898
89	0xbdc4e2c5	-0.09613565
90	0x3dd0bdcc	0.10192451
91	0x3dbb039e	0.09131549
92	0xbd93e362	-0.07221104
93	0x3db5d8f4	0.08879271
94	0xbd3a33b8	-0.04545948
95	0xbdc7b155	-0.0975062
96	0x3cedbc3b	0.02902042
97	0xbd869e32	-0.06573142
98	0x3d7bc4cc	0.061466977
99	0x3e0cd45b	0.13752882
100	0xbde62207	-0.11236959
101	0xbcc1e005	-0.023666391
102	0xbc0deddb	-0.008662666
103	0x3e070d34	0.1318863
104	0x3d4fbf18	0.05071935
105	0x3d38847d	0.045048226
106	0xbda6078a	-0.08106907
107	0xbc947b67	-0.01812525
108	0x3bf9e05e	0.0076256236
109	0xbda9e3b5	-0.08295385
110	0x3e50e5e7	0.20400201
111	0x3df4cb35	0.11952821
112	0xbd095e9d	-0.033537496
113	0xbde756ab	-0.112958275
114	0x3d12cd1c	0.03584014
115	0x3d0aaf1a	0.033858396
116	0xbbf26656	-0.0073974533
117	0x3e50c343	0.20386986
118	0xbbdd7e47	-0.006759438
119	0xbd382a44	-0.044962183
120	0x3d584278	0.052797765
121	0xbdc18534	-0.094492346
122	0xbcee7ad7	-0.029111309
123	0xbcefed34	-0.029287912
124	0xbdbf5254	-0.09341875
125	0x3d106d44	0.035260454
126	0xbd46cd76	-0.048535787
127	0x3c91e53a	0.017809499

fc2.weight f4 [64, 128]
0	0xbe923363	-0.2855483
1	0x3e79adc5	0.24382694
2	0x3f0b5600	0.544281
3	0xbe748cb0	-0.23881793
4	0x3c953919	0.018215703
5	0xbdf87933	-0.12132492
6	0xbf1ccc7d	-0.61249524
7	0x3ecd5f67	0.4011185
8	0x3ea25144	0.31702626
9	0x3d9aacc0	0.07552481
10	0xbed6be1b	-0.41941914
11	0x3e54672d	0.20742483
12	0xbdb19353	-0.08670678
13	0xbf02b07f	-0.5105056
14	0x3d203c7b	0.03912018
15	0x3e10e712	0.14150646
16	0xbe285c21	-0.16441394
17	0x3e87e595	0.26542345
18	0xbe669810	-0.22518945
19	0x3e869256	0.2628352
20	0xbc77e5d6	-0.015130481
21	0x3c35db65	0.011099671
22	0xbdb6710c	-0.08908281
23	0x3f012c09	0.5045782
24	0xbe2fd186	-0.1716977
25	0xbc4e495c	-0.012590732
26	0x3f09ea95	0.5387357
27	0x3e33b563	0.17549662
28	0xbe4eebfe	-0.20207211
29	0xbe011f1e	-0.12609527
30	0x3ee7ae31	0.45250085
31	0xbe3a711f	-0.18207215
32	0x3eedc2ab	0.46437582
33	0x3ecba580	0.39774704
34	0xbd4dbcfc	-0.050229058
35	0x3dee9feb	0.11651596
36	0x36fa1440	7.452938e-06
37	0x3b39a852	0.0028329086
38	0xbcec50e1	-0.02884716
39	0x3efe63e3	0.49685583
40	0xbdfe50a1	-0.124177225
41	0xbbbde451	-0.0057950397
42	0x3d029be2	0.031886943
43	0x3e29e728	0.16592085
44	0x3ec175ff	0.37785336
45	0xbe541922	-0.20712712
46	0x3ecd5304	0.40102398
47	0x3d7fcb50	0.062449753
48	0x3d09dfd7	0.033660736
49	0x3d095d3d	0.033536185
50	0x3e02bc5e	0.12767169
51	0xbe4c0d2d	-0.19926901
52	0xbdb20985	-0.08693222
53	0xbe293276	-0.16523156
54	0x3de7d7a0	0.11320424
55	0x3dc13b4e	0.094351396
56	0x3c8e223d	0.01735031
57	0x3ec1bd1d	0.37839594
58	0x3ee7d3cc	0.45278776
59	0xbf18b7ca	-0.5965544
60	0x3d06fdd7	0.032956924
61	0x3cf5b275	0.029992322
62	0xbe531849	-0.20614733
63	0x3de43b1c	0.11144087
64	0xbe7ba761	-0.24575569
65	0x3f07f709	0.5311132
66	0xbddb4989	-0.10707385
67	0x3e031ead	0.1280467
68	0xbddb798b	-0.10716542
69	0x3c759ffd	0.014991757
70	0xbe65dbe3	-0.22447161
71	0xbe5a0904	-0.21292502
72	0x3f1b0985	0.605614
73	0xbe1ed1ec	-0.15509766
74	0x3e4ac30b	0.19800965
75	0xbd4748ff	-0.0486536
76	0x3d2cd9fb	0.04220007
77	0x3da8745e	0.0822532
78	0xbe171b7e	-0.14756581
79	0x3e684f17	0.2268642
80	0xbbe3ae7b	-0.00694829
81	0xbde85f50	-0.113463044
82	0x3dfe210c	0.12408647
83	0x3dec6fef	0.11544787
84	0xbe27cc0e	-0.16386434
85	0x3eef45ea	0.46733028
86	0xbddd67a1	-0.10810781
87	0x3e33bc26	0.17552242
88	0x3ebbfb1a	0.36715013
89	0x3d037e6c	0.032102987
90	0x3e39d33f	0.1814699
91	0xbe588c46	-0.2114726
92	0xbd0524f0	-0.03250593
93	0xbe66ccbb	-0.22539036
94	0xbd9f8893	-0.07789721
95	0x3df256f5	0.11832992
96	0xbc8ebeb9	-0.017424928
97	0xbf021adc	-0.50822234
98	0xbcb053b9	-0.021524297
99	0xbe26cde5	-0.1628948
100	0x3f0d7037	0.5524935
101	0xbde4a55d	-0.11164353
102	0xbdd2e5cd	-0.10297737
103	0xbd0ed572	-0.034871526
104	0xbf033ac9	-0.51261574
105	0x3e5b1dbf	0.21398066
106	0xbf1fe709	-0.62461907
107	0xbdc8e21b	-0.09808751
108	0x3e6c2715	0.23061784
109	0x3d43a970	0.04776901
110	0xbd6f207a	-0.05838058
111	0xbf34489e	-0.70423305
112	0x3db4b6f8	0.08823961
113	0xbd012538	-0.031529635
114	0xba5c6b46	-0.0008408319
115	0x3dbfe98b	0.09370717
116	0xbeaa9e75	-0.33324018
117	0xbe016ba4	-0.12638718
118	0xbe26b72f	-0.16280816
119	0xbd8c080a	-0.06837471
120	0x3da1bafd	0.07896993
121	0xbdcbc4f0	-0.09949672
122	0x3e798715	0.24367936
123	0x3dfc63c2	0.12323715
124	0xbcf40348	-0.02978672
125	0xbea3238d	-0.3186306
126	0xbe03f2ba	-0.12885562
127	0x3e191dca	0.1495277
128	0x3e4d1a32	0.20029524
129	0x3f284d9d	0.6574343
130	0x3dc94dea	0.09829314
131	0xbe4a11e6	-0.1973339
132	0xbedc5d29	-0.43039826
133	0x3e88dcde	0.26731008
134	0xbde2f14e	-0.110811815
135	0xbd2a9bbf	-0.041652437
136	0xbe28a59f	-0.1646943
137	0xbeb01402	-0.34390265
138	0x3e07d8e1	0.13266326
139	0xbf2e8d82	-0.68184674
140	0x3e032ed2	0.1281083
141	0x3d1e1033	0.038589668
142	0x3ce86be5	0.02837176
143	0xbcec127a	-0.028817404
144	0x3e0a815d	0.1352591
145	0x3e8c74c3	0.27432832
146	0xbda3bad4	-0.07994619
147	0xbe659584	-0.22420317
148	0xbd74d2e8	-0.05977145
149	0xbef67f57	-0.48144028
150	0xbbbfec34	-0.005857015
151	0xbee322ba	-0.44362432
152	0xbe97b004	-0.29626477
153	0x3e1580ba	0.14599887
154	0x3e9d318a	0.30701858
155	0xbeee1382	-0.46499258
156	0xbe8cde07	-0.27513143
157	0xbe4b1609	-0.19832624
158	0x3e1b7167	0.15179978
159	0xbed38134	-0.41309512
160	0x3dc9acda	0.09847422
161	0x3d34c06d	0.044128824
162	0xbe8b3b60	-0.27193737
163	0x3e93dad4	0.2887789
164	0xbe3abefa	-0.18236914
165	0x3eb0969f	0.34489915
166	0xbe9ebb6f	-0.31002375
167	0xbe8465f5	-0.25859037
168	0xbe22e266	-0.15906677
169	0x3e7d9fde	0.24768016
170	0xbf5d2f6b	-0.8640048
171	0xbf333c1a	-0.7001358
172	0x3dfd5d8e	0.1237136
173	0xbf08c6d1	-0.5342837
174	0x3ebd2385	0.36941162
175	0x3e972ba3	0.2952548
176	0xbe999ad8	-0.3000095
177	0x3c2b60d4	0.010460097
178	0x3d602001	0.05471802
179	0xbf0fa2af	-0.5610761
180	0xbec6a090	-0.38794374
181	0xbec64434	-0.3872391
182	0xbeff13e1	-0.49819854
183	0x3d04c887	0.0324178
184	0x3f0cf838	0.5506625
185	0x3f0bcd25	0.546099
186	0x3eea6259	0.45778158
187	0xbf4c8047	-0.79883236
188	0x3e850bdf	0.2598562
189	0xbead674e	-0.33867878
190	0xbefc439b	-0.4927033
191	0x3cdd5d2c	0.027021967
192	0x3e69bce8	0.22825968
193	0x3ec1274c	0.37725294
194	0xbee391cd	-0.44447175
195	0x3e8cd704	0.27507794
196	0xbe1ec367	-0.15504228
197	0x3f11ba20	0.5692463
198	0xbc2cb95c	-0.01054224
199	0xbde9b3f5	-0.11411277
200	0x3ebeda4b	0.3727592
201	0xbd958c84	-0.07302192
202	0xbddf5214	-0.10904327
203	0xbf46f46a	-0.77716696
204	0x3db618a2	0.08891417
205	0xbe25fd26	-0.1620985
206	0x3e415002	0.18878177
207	0x3db383a7	0.08765345
208	0x3c7d5633	0.015462446
209	0xbf37e8e4	-0.7183974
210	0x3f26483a	0.6495396
211	0x3e124dc5	0.14287479
212	0x3dda40f5	0.10656921
213	0xbe5bba3c	-0.21457762
214	0xbf062d2b	-0.5241267
215	0xbe852f87	-0.26012823
216	0x3e9ed3a5	0.31020847
217	0x3db2772d	0.08714137
218	0xbd2b411d	-0.041810144
219	0xbe5d4a86	-0.2161046
220	0x3ee328fe	0.44367212
221	0xbd52ba54	-0.051447228
222	0x3db8d6b9	0.0902533
223	0x3d09b0fd	0.033616055
224	0x3becee7d	0.0072305785
225	0xbe7a906e	-0.24469158
226	0xbf2ad971	-0.6673804
227	0xbf20a7e1	-0.6275616
228	0x3d327f5c	0.04357849
229	0xbe8003d5	-0.25002924
230	0xbef2feaf	-0.47459933
231	0x3e4c1138	0.19928443
232	0x3ec03a88	0.37544656
233	0x3e96cb04	0.29451764
234	0xbe572de7	-0.21013604
235	0xbe6e7dd4	-0.23290187
236	0xbf25140c	-0.64483714
237	0x3c503e81	0.012710215
238	0x3e82ae80	0.25523758
239	0xbf213a8f	-0.6297998
240	0xbe2d8e50	-0.16948819
241	0xbed20e7d	-0.4102668
242	0x3dccf6cb	0.100080095
243	0xbe53dcad	-0.2068965
244	0xbeae2ab0	-0.34016943
245	0xbde58113	-0.112062596
246	0x3c9e5e8b	0.019332191
247	0x3e21aeaf	0.15789293
248	0xbecfea5e	-0.40608495
249	0x3f0002e8	0.50004435
250	0x3e0d717a	0.13812819
251	0x3f0e6db1	0.55636126
252	0xbeecd4da	-0.46256143
253	0xbe95fcf8	-0.29294562
254	0x3eba2d52	0.36362702
255	0xbd00125d	-0.031267513

fc2.bias f4 [64]
0	0x3c5feee0	0.013667792
1	0x3c1ee269	0.009697535
2	0x3e07a734	0.13247377
3	0xbb8ea1b9	-0.004352775
4	0x3e316779	0.17324628
5	0x3da7654b	0.08173617
6	0x3e35c463	0.17750697
7	0x3e003c20	0.12522936
8	0x3dfb7900	0.12278938
9	0xbd9fd0e3	-0.07803514
10	0xbdbd6d61	-0.09249378
11	0xbcbf6bd3	-0.023366844
12	0x3df37fae	0.11889587
13	0x3e2c20a8	0.16809332
14	0xbd8fcada	-0.07021113
15	0x3c2441bc	0.010025438
16	0x3dfbaf01	0.12289239
17	0x3dfd072f	0.12354886
18	0x3d0494bc	0.032368407
19	0x3e133a36	0.14377674
20	0x3df10d19	0.11770076
21	0x3e7df62b	0.24800937
22	0xbcc4a6b5	-0.024005273
23	0xbdc160de	-0.09442304
24	0x3e262bd6	0.1622766
25	0x3e355e5e	0.1771178
26	0x3d08d7b5	0.03340884
27	0x3e045f46	0.12926969
28	0x3de63276	0.112400934
29	0x3e24fbf3	0.16111736
30	0x3e1e78cc	0.15475768
31	0x3d3d96a2	0.046286233
32	0x3e3050d7	0.17218338
33	0x3e03d9b0	0.1287601
34	0x3e1f27af	0.15542482
35	0xbccd2228	-0.025040701
36	0x3e6aaeb3	0.22918205
37	0x3de093fc	0.10965726
38	0x3c909a7e	0.017651793
39	0x3dacfcd1	0.084466584
40	0x3e09acb3	0.13444786
41	0xbc5327ac	-0.0128878765
42	0x3dc4357a	0.09580512
43	0x3b8564c9	0.0040708524
44	0xbd7cb720	-0.06169808
45	0x3de73395	0.11289135
46	0x3cb933f8	0.022607788
47	0xbd2c421a	-0.042055227
48	0xbd97b88c	-0.074082464
49	0x3e12fa6e	0.14353344
50	0x3daf92b1	0.08572901
51	0x3daed936	0.085375234
52	0x3d9dafee	0.076995715
53	0x3d51b891	0.051201407
54	0x3cb2992a	0.02180155
55	0x3d15cd12	0.036572523
56	0xbcd2d4a4	-0.02573616
57	0xbdd42615	-0.10358826
58	0x3d8319c3	0.06401398
59	0x3d2221ee	0.03958314
60	0x3e56ef9e	0.20989844
61	0x3d78231a	0.06058035
62	0xbdbd355c	-0.09238693
63	0xbd9a74c5	-0.07541803

fc3.weight f4 [40, 64]
0	0x3b0dbd37	0.0021627673
1	0xbe025585	-0.12727936
2	0xbe7d5a35	-0.24741443
3	0xbd92fe04	-0.07177356
4	0x3e55d400	0.20881653
5	0x3ec4a9ce	0.384108
6	0x3a9be046	0.00118924
7	0x3e17d583	0.14827542
8	0xbcb839b2	-0.022488449
9	0x3d9c20c8	0.0762344
10	0x3ca90a00	0.020634651
11	0x3d30964c	0.043112084
12	0x3de819ab	0.11333021
13	0x3e88d80f	0.2672734
14	0x3dedee62	0.116177335
15	0x3dd675cc	0.10471687
16	0x3e310ad6	0.1728929
17	0x3dcd5037	0.100250654
18	0x3d51222f	0.05105799
19	0x3e3317e1	0.17489578
20	0x3ecf6159	0.40503958
21	0x3eaf8954	0.3428446
22	0xbdcc6748	-0.09980637
23	0xbd0b5c98	-0.03402385
24	0xbd1fc1cd	-0.039003182
25	0x3e8351e0	0.25648403
26	0x3d8a9b36	0.067678854
27	0x3e9430aa	0.28943378
28	0x3eba5a6a	0.36397105
29	0x3d9c59c4	0.07634309
30	0x3d4e6047	0.050384786
31	0x3e11aeae	0.14226791
32	0x3d3350f1	0.043778364
33	0x3d409ebe	0.04702639
34	0x3e3c2a38	0.1837548
35	0x3db29abc	0.087209195
36	0x3e682b9d	0.22672887
37	0xbc523ca0	-0.012831837
38	0x3d675fbc	0.056487784
39	0x3e4d0a76	0.20023522
40	0x3cb0e675	0.021594265
41	0xbe3da512	-0.1852
42	0xbcd10ef5	-0.025519827
43	0x3edf815c	0.4365338
44	0xbe694d07	-0.2278329
45	0x3e85e5a4	0.26151764
46	0xbf415e9e	-0.75535
47	0xbd34de8d	-0.044157553
48	0xbd4e1d58	-0.050320953
49	0xbdc88baa	-0.09792264
50	0x3e0b3119	0.13592948
51	0x3ead2c40	0.33822823
52	0x3e030f3c	0.1279878
53	0x3e503957	0.20334373
54	0xbdc820a9	-0.097718544
55	0x3d7012c1	0.058611635
56	0xbd1887f0	-0.037239015
57	0x3afd478d	0.0019323692
58	0x3ebf6752	0.37383515
59	0x3e8aeaac	0.27132165
60	0x3c6dca3f	0.014513551
61	0x3e39c4f6	0.18141541
62	0x3d35c068	0.044372946
63	0x3db0ed43	0.08639004
64	0x3e7ded5d	0.24797578
65	0x3ccb4b08	0.024816051
66	0xbe15b0c9	-0.1461822
67	0xbccca2db	-0.02498
68	0xbd474fea	-0.048660196
69	0x3ec82d17	0.390969
70	0xbe02ae09	-0.12761702
71	0x3e81a5d4	0.2532183
72	0x3e4deca2	0.201098
73	0x3e53d245	0.2068568
74	0xb9a17200	-0.0003079325
75	0x3d712ef8	0.058882684
76	0x3e926b0b	0.28597292
77	0x3e16fcbb	0.14744847
78	0x3be5ace0	0.0070091337
79	0x3da10aec	0.07863411
80	0x3e6531a1	0.22382213
81	0x3e16699d	0.14688726
82	0x3e5f14fa	0.21785346
83	0x3e6ea6b8	0.23305786
84	0xbe74fbab	-0.23924129
85	0x3e0de627	0.13857327
86	0x3d8ba1ba	0.06817956
87	0xbd604698	-0.054754823
88	0xbd8fd6e1	-0.07023407
89	0x3e478b8f	0.19486831
90	0x3c07c52e	0.008286757
91	0x3ea2e6e7	0.3181679
92	0x3c4f2b69	0.012644627
93	0x3db2044e	0.08692227
94	0x3dd8c959	0.10585279
95	0x3dbf39df	0.0933721
96	0xbbc6c1f7	-0.006065603
97	0x3e0400ae	0.12890884
98	0x3d408241	0.04699922
99	0x3e0a08c7	0.13479911
100	0x3e18de4d	0.14928551
101	0x3d64f3de	0.055896632
102	0x3e761789	0.24032415
103	0x3e235aa7	0.1595255
104	0xbe9d2454	-0.3069178
105	0x3e790ba2	0.24320844
106	0x3df1187e	0.1177225
107	0xbe0a0f03	-0.13482289
108	0x3e2b5353	0.16731004
109	0x3e9b39b3	0.3031746
110	0xbeb42477	-0.3518407
111	0x3d363a19	0.044489
112	0xbd18b1ec	-0.037279055
113	0x3e4f48e5	0.20242651
114	0x3d84de3a	0.06487699
115	0x3e5ddf4b	0.21667211
116	0x3e8512da	0.25990945
117	0x3e892de4	0.26792824
118	0x3eaf6e2c	0.34263742
119	0x3e87778a	0.2645839
120	0xbd803bfb	-0.0626144
121	0x3e4fda26	0.20298061
122	0x3d92b499	0.071633525
123	0x3e4b7bec	0.19871491
124	0x3e079d4b	0.13243596
125	0xbaad94f7	-0.0013243248
126	0x3bb99720	0.0056637675
127	0x3c26c75e	0.010179369
128	0xbf035505	-0.51301605
129	0xbd54bc6c	-0.051937506
130	0xbe5b1952	-0.21396378
131	0x3e1b8484	0.1518727
132	0x3e9661ee	0.2937159
133	0x3e56df8a	0.20983711
134	0x3e441473	0.19148426
135	0xbacc8900	-0.0015604794
136	0xbdc91ba5	-0.09819726
137	0x3e54ddc0	0.20787716
138	0xbd1e6278	-0.038668126
139	0x3dab00bc	0.083497494
140	0x3d9f63bb	0.07782694
141	0x3e8efcf6	0.2792737
142	0xbd06e9e8	-0.032937914
143	0x3d876b9e	0.06612323
144	0x3e476b4c	0.19474524
145	0x3ee9ae28	0.45640683
146	0x3e4fd6e7	0.20296822
147	0x3e1fb34c	0.1559574
148	0xbce2df55	-0.027694384
149	0x3ca8c8b2	0.020603511
150	0xbc9d9688	-0.019236818
151	0x3de6ad0a	0.11263473
152	0x3e49432e	0.19654533
153	0x3e472346	0.1944705
154	0x3df71ada	0.120656684
155	0xbeccdf69	-0.40014198
156	0x3cbd399b	0.023098757
157	0xbe3c4ba1	-0.18388225
158	0x3e7dc9d6	0.24784026
159	0x3d9237d7	0.07139557
160	0x3bb7eb2b	0.005612751
161	0xbcd79859	-0.026317762
162	0x3ea8bde7	0.32957384
163	0x3e9cf08d	0.30652276
164	0x3e766853	0.24063234
165	0x3ce1295e	0.027485546
166	0x3d32a34b	0.04361276
167	0x3e81df3b	0.25365624
168	0xbeb5f12d	-0.35535565
169	0xbee29957	-0.44257614
170	0x3e28c4cd	0.16481324
171	0x3e7816c6	0.24227437
172	0x3e34b44e	0.17646906
173	0x3e22e552	0.15907791
174	0xbe869cc9	-0.26291493
175	0xbe19c598	-0.15016782
176	0xbd7c3883	-0.06157733
177	0x3e7f58e8	0.24936259
178	0x3e461ce7	0.19346963
179	0xbd01a89a	-0.03165493
180	0x3eb9a28b	0.36256823
181	0x3d4b31c3	0.049608003
182	0x3b52e041	0.0032177123
183	0x3f08999d	0.53359395
184	0xbeaad9c6	-0.33369273
185	0xbb73ca8f	-0.0037199592
186	0x3d8f6c91	0.07003129
187	0xbdbcf745	-0.092268504
188	0xbc495bfa	-0.012289995
189	0x3dad8dcf	0.084743135
190	0xbd888032	-0.06665076
191	0x3dca7bb2	0.09886874
192	0xbe5881c9	-0.21143259
193	0xbeb0d663	-0.34538564
194	0xbeeab0e3	-0.4583808
195	0xbe8e42e6	-0.27785414
196	0x3d974fb8	0.07388252
197	0xbd879de0	-0.06621909
198	0x3e0a8a9d	0.1352944
199	0x3e502c00	0.20329285
200	0x3e0897f3	0.13339214
201	0x3eb1a9fb	0.34699997
202	0xbd04ec50	-0.032451928
203	0x3de909b2	0.11378802
204	0x3e0c013d	0.13672347
205	0x3ed246a3	0.41069517
206	0x3ab1ed80	0.0013574809
207	0xbcd18228	-0.025574759
208	0x3cf1921d	0.029488618
209	0x3d79ca13	0.06098373
210	0x3c671c37	0.014105848
211	0x3c45d77d	0.012075302
212	0x3d27c60f	0.040960368
213	0x3e374d4e	0.17900583
214	0x3d0edb94	0.034877375
215	0x3be10220	0.0068667084
216	0x3e0bb477	0.1364306
217	0x3d9e850b	0.0774022
218	0x3d62e1d8	0.055391163
219	0x3f0965f3	0.5367119
220	0x3e063f6b	0.1311013
221	0x3ded4dd6	0.11587112
222	0x3f0b19f6	0.5433649
223	0x3de08604	0.109630615
224	0x3ebd7a58	0.37007403
225	0x3e4b220c	0.19837207
226	0x3e81e96f	0.25373408
227	0xbdb6e727	-0.089308076
228	0xbe921be5	-0.28536907
229	0x3e4e8cd2	0.20170906
230	0x3d6a426e	0.05719226
231	0x3ac967d9	0.0015366032
232	0xbdb13121	-0.08651949
233	0x3e1b2ced	0.15153857
234	0x3da7a934	0.0818657
235	0x3c3919dc	0.011297669
236	0xbdb709e1	-0.08937431
237	0x3db59371	0.08866013
238	0xbd80e7a2	-0.062941805
239	0x3e7b316f	0.24530576
240	0xbd6678a4	-0.056267396
241	0x3edb1d73	0.42795905
242	0x3e278d55	0.16362508
243	0x3bd9778a	0.0066365646
244	0x3e60db87	0.21958743
245	0x3d983f86	0.07433991
246	0xbe061aea	-0.13096204
247	0xbe98f93e	-0.29877657
248	0xbe59885c	-0.21243423
249	0x3e20dcc4	0.15709215
250	0x3e065e4e	0.13121912
251	0x3e1643bd	0.14674278
252	0x3e486714	0.19570571
253	0x3e80147f	0.25015637
254	0x3dd4074e	0.10352956
255	0x3d694232	0.056947894

fc3.bias f4 [40]
0	0x3db43c0f	0.08800518
1	0x3dc9b321	0.09848619
2	0x3e3540de	0.17700526
3	0x3e12d46f	0.1433885
4	0xbdf7ac0a	-0.12093361
5	0xbdedbc69	-0.11608202
6	0x3d605bbc	0.054774985
7	0xbd99bd2a	-0.07506783
8	0x3dca8a58	0.09889668
9	0x3daa0a60	0.0830276
10	0x3e4d2c9a	0.20036545
11	0x3d7cc8a9	0.061714802
12	0x3e57a59b	0.21059267
13	0x3e6b0a97	0.22953258
14	0x3ea1fd17	0.31638405
15	0x3e14f4c6	0.14546499
16	0x3cb999e0	0.022656381
17	0xbd63b5f0	-0.05559343
18	0x3ec6b301	0.38808444
19	0xbc8549b0	-0.016270489
20	0xbd1482ae	-0.03625744
21	0x3e5de9c3	0.21671204
22	0x3e60a166	0.21936569
23	0x3e9de77e	0.30840677
24	0x3e994868	0.29938054
25	0x3e4833ef	0.19551061
26	0x3e1f2596	0.15541682
27	0x3df8b6d3	0.12144246
28	0xbe0361b9	-0.12830247
29	0x3e5ddb00	0.21665573
30	0x3e3058ff	0.1722145
31	0x3c748585	0.014924412
32	0x3debd57d	0.11515329
33	0xbd4ef048	-0.05052212
34	0x3db51021	0.08840967
35	0xbbf62eeb	-0.0075129173
36	0x3de3e338	0.11127323
37	0x3f136d3a	0.5758854
38	0x3dcb324c	0.09921703
39	0xbbbccddd	-0.0057618455
