Reinforcement Learning/homework/作业二_FightingGame/格斗游戏大作业_提交/RL_fightinggame/checkpoints/DQN/ZEN/ckpt-297.pth (torch, 120274 bytes, 6 tensors)

fc1.weight f4 [128, 144]
000000 34 3d 09 bf 24 6b 61 bf b0 20 af bd 07 52 2f 3e
       -0.53609014 -0.8805411 -0.085511565 0.17121135
000010 59 01 4d 3e 53 33 d3 bd 73 d6 5a 3c 12 75 80 be
       0.20020045 -0.10312524 0.013356793 -0.25089318
000020 15 a0 77 bc b8 81 8f bd d1 ef c0 bd 18 73 1c 3e
       -0.01511385 -0.07007164 -0.09420741 0.1527828
000030 41 52 48 3e 28 12 49 bf fc cc fa be 99 68 b4 be
       0.19562627 -0.7854333 -0.48984516 -0.35236052
000040 96 d7 54 3e 19 2b 5f 3d af 52 96 3e ec 00 0b be
       0.20785365 0.05448446 0.29359958 -0.1357457
000050 d2 95 54 bd 94 06 8a 3e 07 6b ff 3d 68 14 22 bc
       -0.051900692 0.26958144 0.12471586 -0.009892561
000060 f8 f3 67 bd da be d4 bd 31 b8 37 be 73 b3 b0 be
       -0.05662915 -0.103879645 -0.17941357 -0.3451191
000070 9d 6f 99 3d 4a 3a 6c 3d 3a ed 76 3b 73 76 28 bf
       0.07491992 0.057672776 0.003767802 -0.6580574
000080 fb 04 09 bf f2 10 94 3e 2e 69 a4 be 4c 8b 93 bf
       -0.53523225 0.28919178 -0.32111496 -1.1526885
000090 49 7f a1 be 65 cb 9e be 00 0e 4d 3e 3a 9f 76 3d
       -0.31542423 -0.31014553 0.20024872 0.060210444
0000a0 14 6b 63 bf 8f 49 de be 61 3a 39 3e 5d 6c c4 3e
       -0.88835263 -0.43415496 0.18088676 0.38363925
0000b0 ad 19 6f be 97 c5 0e bf ea 86 82 be 5b d5 1f 3d
       -0.23349638 -0.5577025 -0.25493556 0.03902183
0000c0 fb ec 3b 3e 3f 78 6b be fb de d4 bd 60 c8 ba bc
       0.1835212 -0.22995089 -0.10394093 -0.022800624
0000d0 55 71 ee 3e 87 43 ae bf 8e eb 97 3c 2a 5b c8 be
       0.4657084 -1.3614358 0.018544938 -0.39132053
0000e0 0d 4e ce be 12 9d b4 bd f6 f6 d3 3e 20 a0 4c 3e
       -0.40293923 -0.08819021 0.41399354 0.19982958
0000f0 a3 7d 44 3e 88 77 ca be 74 81 a3 be be 7d 12 bf
       0.19188552 -0.3954432 -0.31934702 -0.5722312
000100 fe 21 94 3d d7 f3 da be 6d 4c 96 3d ab 0e 2a bf
       0.07233046 -0.4276416 0.07338796 -0.6642863
000110 48 6c 41 bd 45 fd ca be e8 df db 3e 16 6a ae b9
       -0.047222406 -0.39646354 0.42944264 -0.00033266906
000120 98 83 a1 bd c6 23 e4 bd 82 76 87 3c a0 7f 03 3b
       -0.07886428 -0.11139636 0.016536001 0.0020065084
000130 20 14 10 3f 22 2a b1 ba a2 58 2a be be 0e cc be
       0.5628071 -0.0013516585 -0.16635373 -0.39854997
000140 2a 00 64 3f d6 b0 86 bb 77 59 90 be 8f 5f 53 be
       0.8906275 -0.004110436 -0.28193256 -0.20641921
000150 9c 82 0a bf 88 62 ca bd 96 c5 a6 3d 19 28 75 3c
       -0.54105544 -0.098820746 0.08143155 0.014963173
000160 8f 50 de bd 56 f2 6d 3d 88 ff 79 3c ae 6b 7f be
       -0.10855209 0.058092438 0.015258677 -0.2494342
000170 4b 4c 9a bd 30 72 d8 3d 26 c4 58 be e7 f1 c5 be
       -0.07534083 0.105686545 -0.21168575 -0.3866112
000180 eb d3 cd 3b fc 51 c6 bc e4 f7 34 bf 32 ec 27 3c
       0.006281366 -0.024209015 -0.7069075 0.010249184
000190 a6 54 18 be 06 f3 be bd f0 92 66 be 8f 01 03 bc
       -0.14876041 -0.09323697 -0.2251699 -0.007995977
0001a0 e4 ae 0c 3f 8c c5 d7 3e 59 dd bb be c0 6d 29 be
       0.5495436 0.42142904 -0.36692312 -0.16545773
0001b0 84 8d d9 be f5 23 e2 be 0d 23 6a bf 1c a3 82 be
       -0.4249078 -0.44168058 -0.91459733 -0.25515068
0001c0 8f c6 fb bd 7c 71 51 be 0e bf a7 3d 16 59 82 3d
       -0.122937314 -0.20453447 0.08190738 0.06364648
0001d0 0d 57 d2 3d 43 f3 73 3d af c1 13 bf 75 76 97 be
       0.1027051 0.059558164 -0.5771741 -0.29582563
0001e0 ce b8 64 be 99 7f 17 bd 6c c1 e6 3d c7 9d 0c bf
       -0.22336122 -0.03698692 0.11267361 -0.5492825
0001f0 13 c6 f8 be 77 ab 70 3e 7a 44 74 3d 78 ad d0 be
       -0.4858862 0.23502909 0.059635617 -0.40757346
000200 71 01 4d be 6c a0 4c be 18 a7 c0 3e 6b 94 b3 3e
       -0.20020081 -0.19983071 0.37627482 0.3507417
000210 a6 8d f2 3e 61 21 36 3f c5 a3 60 bd c4 09 ec 3d
       0.47373694 0.7114468 -0.054843683 0.115253
000220 0b 72 94 3d f3 bc 25 3e 94 55 e2 3e 08 fe 12 3f
       0.072483145 0.1618536 0.44205916 0.5741887
000230 df 81 8c be 5a c7 9b be 8c 62 ac be c6 13 ce be
       -0.27442834 -0.3042553 -0.33668935 -0.4024946
000240 a4 23 10 3f ca 17 55 3e 08 89 f2 bd 9e 55 27 bf
       0.56304383 0.20809856 -0.11842543 -0.65365016
000250 33 bf 40 be 30 28 e2 bc 05 85 0f 3d 21 35 ac be
       -0.18822937 -0.027607054 0.035038967 -0.33634284
000260 47 d0 89 be 26 56 6b 3d 8e 97 37 be 68 04 b4 be
       -0.26916716 0.057455204 -0.17928907 -0.35159612
000270 4f 8d 91 be ab cf c9 bd 08 4b 16 be 2a 78 6f be
       -0.28428122 -0.09854063 -0.1467706 -0.23385683
000280 dc 0d fb be f5 6b 8c be 24 96 07 3e d7 aa 33 bd
       -0.4903401 -0.27426115 0.13240868 -0.043864097
000290 59 36 03 3f e4 3a f7 3d ec bd 70 be ad 0b d6 be
       0.512548 0.12071779 -0.2350995 -0.41805783
0002a0 96 d3 00 bd 2f 45 39 be 55 c9 97 be 63 b0 b1 be
       -0.031451784 -0.18092798 -0.29645792 -0.34704885
0002b0 2e fa 6a 3d a0 92 ea bc 36 8c 92 be 83 83 85 be
       0.057367496 -0.02863437 -0.28622597 -0.26076898
0002c0 40 46 75 3e a8 ca f3 be da 17 ae 3e 8c 7b 32 bf
       0.2395258 -0.47615552 0.34002572 -0.6971977
0002d0 dd cc df be 31 a1 d8 3c 60 b2 01 3e 72 c5 7a 3e
       -0.43710986 0.02644405 0.12665701 0.24489382
0002e0 5f 67 04 3f 63 03 99 be 6c d0 9a 3d a5 ae b2 3d
       0.5172023 -0.29885396 0.075592846 0.08724717
0002f0 3e b6 81 be ff 7c 08 bf d2 09 68 bd 6d 51 0b be
       -0.25334352 -0.5331573 -0.05664999 -0.1360528
000300 9a e3 87 be 1f ca de be a0 20 45 3e 2b 33 0b bf
       -0.26540834 -0.4351358 0.19250727 -0.5437495
000310 64 11 85 3e 0d fd 62 bf 84 94 da be 1f 4b a9 3d
       0.2598983 -0.88667375 -0.42691433 0.08266281
000320 db a4 f6 3d c8 55 83 be 8e 2e 03 3f 9d 21 43 bf
       0.120431624 -0.25651383 0.5124291 -0.76223165
000330 e3 da 1e 3d 2c 87 16 be 2b 00 7c be 65 e8 f4 be
       0.038782965 -0.14700001 -0.24609439 -0.47833553
000340 14 37 c1 3e 73 18 3d be f7 be d7 3e d7 01 64 bf
       0.37737334 -0.18466358 0.42137882 -0.8906531
000350 45 b2 8a bd 20 df b0 be d2 d0 4c 3f 0a 1a 30 3d
       -0.067722835 -0.3454523 0.80006135 0.042993583
000360 75 ec 61 bf 10 ed a6 3d 7a 27 23 be 8e 09 76 3d
       -0.8825143 0.08150685 -0.15933028 0.060067706
000370 37 f6 33 bf 4f 87 e0 bd 2a 31 c7 be 2c 29 9e be
       -0.7029757 -0.10963308 -0.38904697 -0.30890787
000380 55 27 56 3c cd 42 6d bd 7c 78 02 bf ee 93 83 3e
       0.013070901 -0.057925034 -0.50965095 0.256988
000390 38 c0 e5 bd 62 82 1b be 84 f7 24 3d 0d a7 c3 be
       -0.112183034 -0.15186456 0.04027511 -0.38213387
0003a0 12 4f 24 3d aa fc 0f 3d 10 84 a4 bb 1b 59 11 3e
       0.04011447 0.03515307 -0.005020626 0.14194147
0003b0 5e a9 c3 be f8 4b 92 be 6c 0b 1c be 5e 1e 4d be
       -0.38215154 -0.28573585 -0.15238732 -0.20031115
0003c0 2f 7f 91 bc 2c 21 90 be 52 31 9b bd 37 5a 6e be
       -0.017760841 -0.28150308 -0.075777665 -0.23276602
0003d0 4b 68 40 bb 46 41 9d 3d 37 48 a7 3e cc cf 3f bf
       -0.0029359038 0.076784655 0.32672283 -0.7492645
0003e0 22 bb df be 94 bd 10 be 42 40 cf 3e 21 d2 c3 bd
       -0.43697459 -0.14134818 0.40478712 -0.09561563
0003f0 8c 85 7e be 29 73 bc 3e b6 b3 a3 be e3 d2 a4 be
       -0.24855632 0.3680661 -0.31973046 -0.32192144

fc1.bias f4 [128]
000000 a1 61 6d bd 04 cb 0a be b3 40 26 be 51 26 96 3d
       -0.057954434 -0.13554007 -0.16235618 0.07331527
000010 4a 06 66 3c 4f 43 25 be 84 2b 4e be ae e3 8f bc
       0.014039585 -0.16138957 -0.20133787 -0.01756462
000020 ec 8e 2a 3c a2 14 ac bb 3a 95 a2 bd dc 2b e1 bc
       0.010410052 -0.005251483 -0.07938619 -0.027486734
000030 b3 05 35 bd 31 3e d4 bc 73 5a b6 bd b7 0e 2b be
       -0.04419489 -0.025908561 -0.089039706 -0.16704832
000040 1f 90 11 be 87 db 91 be ff d1 a0 3e b6 bf af be
       -0.14215134 -0.284878 0.31410214 -0.3432595
000050 69 07 59 be 9c 52 99 3c b2 8d 94 bc a7 24 df 3d
       -0.21194233 0.018716149 -0.018133972 0.10895663
000060 c4 c1 94 bd 37 2c aa bd 69 00 66 be 66 5f 8d be
       -0.0726352 -0.083092146 -0.22461094 -0.27611846
000070 b8 13 15 3e c8 d3 e7 3d 7d 38 50 be 98 de 3a bd
       0.14558303 0.11319691 -0.20334049 -0.04562244
000080 ec 95 4c be 0f 08 82 bc a7 41 e6 bd 1f 8f 7a bd
       -0.19979066 -0.015872983 -0.11242991 -0.061171647
000090 ff 23 2a 3e f1 c4 1c be fd da f4 bd 71 c9 1b be
       0.16615294 -0.15309502 -0.11955831 -0.15213563
0000a0 b6 c1 d8 bc 25 f3 10 be b2 a7 8d 3e 6b 19 ad bd
       -0.026459556 -0.14155252 0.27667004 -0.08452114
0000b0 ca 64 32 be 0f 71 c9 3c 4a 7d 0f be 85 d5 fe bc
       -0.1742126 0.024590043 -0.14012638 -0.031107673
0000c0 69 d7 19 bd ef 03 02 be 08 62 1f bd af b8 87 bd
       -0.037558947 -0.12696813 -0.03891185 -0.066270225
0000d0 03 2b 01 3e 19 4d 2b be 75 92 96 bc 19 fc 30 be
       0.12614064 -0.16728629 -0.018380383 -0.17283668
0000e0 48 9e 3e 3d 15 3d 83 bd 3e be bf bc 92 bd 9c bd
       0.046537668 -0.06408135 -0.023406144 -0.07653345
0000f0 37 62 1e be b5 6d 21 3e 39 15 4f bd 61 85 8a bd
       -0.15467153 0.15764506 -0.05055735 -0.06763721
000100 3f d8 48 be d4 07 23 be fb a1 c0 3c 93 cd 98 be
       -0.19613741 -0.15920955 0.023514738 -0.2984434
000110 07 32 d3 bd 56 a0 54 be f7 0c c2 bd 20 bd 03 be
       -0.10312276 -0.20764288 -0.09475129 -0.12865114
000120 cf 8d aa be c7 47 8a be 81 dd 37 be 98 62 11 bc
       -0.33311316 -0.27007887 -0.17955591 -0.008873604
000130 13 44 d1 bd fd 8d 30 be 8d ee db bc 68 33 10 be
       -0.10218062 -0.17241664 -0.026847148 -0.1408211
000140 6c fb c6 bd 23 c6 06 be 7b 0c 49 be f9 e9 ab bd
       -0.09715924 -0.1316152 -0.19633667 -0.08394236
000150 3b d2 22 be da 11 f1 bd 21 21 3a be d8 a6 b1 be
       -0.15900509 -0.11770983 -0.181767 -0.34697604
000160 9c f7 39 be c5 e2 c4 bd 07 90 9e 3c dc d8 5d bb
       -0.18160862 -0.09613565 0.019355787 -0.0033851182
000170 10 a7 33 bd 8c 66 6f bd a1 f5 03 be 20 36 85 be
       -0.043860495 -0.058447406 -0.12886669 -0.26017857
000180 95 e0 0f bd 08 6a 45 be 02 ba 18 3d 68 32 14 3e
       -0.035126287 -0.19278729 0.037286766 0.14472353
000190 31 37 5e be af dd 0e be 0b 91 e1 bd 41 5f 79 3d
       -0.21700741 -0.13951753 -0.11013993 0.060881857
0001a0 0c 28 00 3d 78 e3 84 3d 4a 2c 93 bd 24 16 20 be
       0.03128819 0.06488699 -0.07186182 -0.15633446
0001b0 d4 c1 44 bd de dc 8a be 19 ec 59 3e aa 5e 5a 3e
       -0.04803641 -0.27121633 0.2128147 0.21325174
0001c0 0c e9 4e be d4 28 8c be c8 87 db bd c3 be 96 3d
       -0.20206088 -0.273749 -0.107192576 0.07360604
0001d0 40 89 a6 bd 90 3d 42 3e af ee 55 bd 11 cf 0a be
       -0.08131647 0.18968797 -0.05222958 -0.13555552
0001e0 95 7c 88 3a 18 34 41 be b4 39 9c bd b1 d1 73 be
       0.0010413105 -0.18867528 -0.076281935 -0.2381046
0001f0 0f 2e 78 be 9a bb 7a 3d 0e b6 2b be 30 00 23 bd
       -0.2423632 0.061214067 -0.16768667 -0.0397951

fc2.weight f4 [64, 128]
000000 15 b2 54 bf 76 f5 28 3f 47 7f cf 3e 11 fb 1a 3e
       -0.8308423 0.65999544 0.40526792 0.15134837
000010 6e a6 42 3e f8 b6 53 3e b8 3b b4 bf bc 23 2c 3e
       0.190088 0.20675266 -1.4080725 0.16810507
000020 8d ab 36 3c 82 18 0d 3f 95 5a db be 67 12 58 3f
       0.011149299 0.5511552 -0.42842546 0.8440308
000030 d4 8c 43 3c 6d 06 db bf 91 a2 9b be ac 30 07 3f
       0.0119354315 -1.7111336 -0.30397466 0.5280864
000040 2e cd f5 3d 3e 31 f6 3e 3f a4 41 bf ef b4 58 3e
       0.120020255 0.48084444 -0.75641245 0.2116277
000050 61 b2 0d bf cc 21 d9 3d 95 c9 0c 3f a3 59 24 3f
       -0.5535031 0.10602149 0.5499509 0.64199275
000060 87 1f d8 be 76 31 c2 be 9a 32 d0 3e 9a bd 96 be
       -0.42211553 -0.3792836 0.40663606 -0.2944153
000070 38 10 4f 3e 5e 34 65 be 96 57 9c 3e 71 14 85 be
       0.2022103 -0.22383258 0.30535573 -0.25992158
000080 d5 09 9a 3f 8c aa bb 3e 0d f6 31 bf b5 fe 02 be
       1.203425 0.36653554 -0.6951607 -0.12792476
000090 a0 7a f9 3c c0 39 6f be 13 2f 84 be 68 cf 84 3e
       0.03045398 -0.23361874 -0.25817165 0.25939488
0000a0 30 89 af bd a3 4f f4 bd 98 71 2b be 5e 7c 53 3e
       -0.08571088 -0.11929252 -0.16742551 0.20652911
0000b0 4d 16 70 bd d6 7a c3 3d 03 5d 37 3e 8b 0a 54 be
       -0.058615018 0.095449135 0.17906575 -0.20707147
0000c0 fe 58 4e 3b 84 10 94 3e 27 50 35 3f 08 cb 4f bf
       0.003148615 0.2891885 0.7082543 -0.81169176
0000d0 5d c6 a2 bd 0d b1 01 bd dd 2a 28 3e be 86 e0 be
       -0.07947991 -0.03166299 0.16422601 -0.438528
0000e0 11 22 dc be a1 99 e4 3e a9 65 50 3f 54 fe a2 bf
       -0.4299474 0.4464846 0.8140512 -1.2733865
0000f0 c5 08 ae bd 71 3f 98 be 48 9f 6a bf 8f b6 1a 3f
       -0.084977664 -0.29735902 -0.91649294 0.6043481
000100 4c 5d 19 3e d7 f3 d3 3e 2b a4 68 be 2f 1a 6b bb
       0.14976996 0.41396973 -0.22718875 -0.003587376
000110 48 c4 ef be b1 3d 35 be 63 ea 24 bf ca 75 a0 3d
       -0.46829438 -0.17699315 -0.64420146 0.078349665
000120 ee 21 97 3d e2 82 ad be 5e 7f df 3c 46 d2 b6 3d
       0.073795184 -0.33888918 0.027282413 0.08926825
000130 c9 89 0a be 40 6a 98 3e 0c 0d 8a 3e be d1 2f 3e
       -0.13529123 0.29768562 0.2696308 0.17169854
000140 0e b2 13 bd ff 44 9e 3e 3e 4e 23 3f f0 02 07 3d
       -0.036058478 0.30912015 0.63791263 0.032961786
000150 dd 02 83 3d 91 b3 b6 3e 0c 03 8c 3e a7 d0 07 bf
       0.063970305 0.35683873 0.27346075 -0.53052753
000160 36 4c cc 3e 6c 7e 03 3d 8d 86 4b 3c 6f 93 1a be
       0.39901894 0.032102987 0.012422216 -0.15095304
000170 74 1f 14 be eb 08 e8 bd b8 1d 80 be 09 99 6e 3e
       -0.14465123 -0.11329826 -0.25022674 0.23300566
000180 18 be ec 3d 33 7f 54 be b6 f8 c9 3d 66 19 44 bf
       0.11559695 -0.20751648 0.09861891 -0.76601255
000190 5f b7 01 3f b5 0a 27 3e bb 89 4e be 9e fb 46 be
       0.5067043 0.16312678 -0.20169728 -0.19431922
0001a0 d7 6d 1a be c4 53 6b 3e 54 67 8d bf 56 75 81 3e
       -0.15080963 0.22981173 -1.1047158 0.25284833
0001b0 46 e5 c0 3e 64 b2 8b 3e 32 f1 56 bf fa 68 b0 bf
       0.37674922 0.2728454 -0.83961785 -1.3782036
0001c0 7e 5d 36 bf 53 b9 99 be 62 56 35 bf f7 f1 b7 3d
       -0.7123641 -0.30024204 -0.70834935 0.08981698
0001d0 7b e3 12 bf 95 5d bc be 39 5f ae be 29 4d 11 bf
       -0.5737836 -0.36790147 -0.34057024 -0.5675836
0001e0 5f 65 6c be e5 72 23 3c 48 66 14 3f c4 06 4d 3c
       -0.23085545 0.009976123 0.5796857 0.01251382
0001f0 43 e9 74 bd 92 07 01 bf ca ee 83 be 31 2c 0b 3f
       -0.05979277 -0.50402176 -0.2576812 0.54364306
000200 bc eb 7b 3e a3 af 07 3f a3 c5 8e be 02 52 e2 3c
       0.24601644 0.53002375 -0.2788516 0.027626995
000210 f7 40 83 be 7c 6a 89 bd 31 f0 22 bf 48 f7 8c be
       -0.25635502 -0.067097634 -0.63647753 -0.2753241
000220 25 1e de bd 08 26 cf 3b 12 93 82 bd f8 70 0f bf
       -0.10845593 0.0063216724 -0.06375708 -0.5603175
000230 45 83 05 3f a4 55 e5 3e 4a 4c 19 be 2e 3e a1 3e
       0.52153426 0.447919 -0.14970508 0.31492752
000240 79 18 1b bc 1d e1 32 3e a1 d0 02 be 8e 40 02 3e
       -0.009466284 0.17468686 -0.12774898 0.12719938
000250 38 fb 85 be 6f b8 4c bf 64 73 c6 bd 80 45 1b bf
       -0.26168227 -0.79968923 -0.09689978 -0.60652924
000260 2c 64 29 3e 3a 70 0f bc 78 94 36 3e 4c d5 5d bf
       0.16542119 -0.008754784 0.17830074 -0.8665359
000270 b8 b2 b2 3e a8 ea da bb 28 f3 84 3e c1 87 9f be
       0.34901977 -0.0066808052 0.25966763 -0.3115826
000280 7c 37 94 bd 13 62 4d be 38 09 2c be 46 fb b3 bd
       -0.07237145 -0.20056944 -0.16800392 -0.08788161
000290 76 b6 65 bf 70 79 de 3e 7e 3a 2b bf c7 08 69 bf
       -0.8973154 0.43452024 -0.66886127 -0.9102902
0002a0 42 ec 6d bc 3c ff 8a be 87 46 5e bf 4c cd ce be
       -0.01452166 -0.27147853 -0.86826366 -0.40391004
0002b0 be 50 2f 3f 87 1b 8a bf fd 9d 29 3f 00 bb 21 3e
       0.6848258 -1.0789651 0.66256696 0.15793991
0002c0 b5 4d 42 bd ea ce be be 64 d3 c0 bd ed 8c b7 bf
       -0.04743739 -0.37267238 -0.094153196 -1.4339882
0002d0 e8 23 e1 be f2 4c 15 3c 37 e4 ea be 1e 9e 83 bd
       -0.43972707 0.0091125835 -0.4587724 -0.06426643
0002e0 70 16 75 3e 66 59 39 3f 87 33 83 3f 7d 94 96 bf
       0.2393434 0.72402036 1.02501 -1.1764065
0002f0 1b fe b3 3e 64 1e 2b be 5c 40 15 bd 08 bd 18 3e
       0.35154805 -0.16710812 -0.03643833 0.1491586
000300 8e 74 c9 bd 8f fc c5 3e ed 02 1d be 25 55 1c 3e
       -0.09836684 0.3866925 -0.15333147 0.15266855
000310 a0 6b 07 bf bc 52 1e 3f a9 67 02 be 32 a7 25 be
       -0.528986 0.6184499 -0.12734856 -0.16177061
000320 2f 50 a7 3e 94 51 01 3f cd 08 bd 3d 43 8d d5 bf
       0.32678363 0.50515103 0.09230194 -1.6683735
000330 01 32 13 3e 25 04 67 be 30 36 09 3e c6 d2 e3 3e
       0.14374544 -0.22560175 0.13399577 0.44496745
000340 13 eb b3 3e 42 e7 00 bf e1 98 a0 3e b8 66 16 3e
       0.35140285 -0.5035287 0.31366637 0.14687622
000350 58 ac 60 3e 0e 99 f0 be a1 ed 23 bf 38 f3 8f 3e
       0.21940744 -0.4699177 -0.6403447 0.2811525
000360 6a 3b f2 3e 2d 77 b2 3d 33 77 01 bf d9 23 0d 3d
       0.47310954 0.08714137 -0.5057251 0.034458015
000370 4c 2e 0a 3f 1a cd d7 3d a4 dd 79 3e 06 b9 6c 3d
       0.53976893 0.10537167 0.24400955 0.05779364
000380 b8 49 7f be ef a8 85 be 62 d4 53 bf d7 ee e5 be
       -0.24930465 -0.2610545 -0.82745945 -0.44908783
000390 92 00 26 3d 8a 4c db bc 62 6a 58 be ec aa bc 3e
       0.040527888 -0.026769895 -0.21134332 0.36849153
0003a0 71 08 10 3f 4a 69 6c be e3 ba d8 be ea bd 03 3e
       0.5626288 -0.2308704 -0.42330083 0.12865415
0003b0 75 32 4d bf 86 16 12 bf 7f 20 a7 3e c6 ee 3d bf
       -0.80155116 -0.5706562 0.3264198 -0.74192464
0003c0 12 08 25 bf 4c 7a 14 bf ce b9 a8 3e 76 0a fe be
       -0.6446544 -0.5799911 0.32954258 -0.49617356
0003d0 b2 12 00 bf 33 8d 7a 3e 9a d0 2c be f6 6e ca 3e
       -0.50028527 0.24467926 -0.1687645 0.3953778
0003e0 48 b1 6f be 30 7e 5e 3f ab a5 9b 3e af de 38 be
       -0.23407471 0.86911297 0.30399832 -0.18053697
0003f0 28 c6 b8 be e9 83 92 bf 6b 7b b7 3e 48 02 96 3e
       -0.3608868 -1.1446506 0.35836348 0.29298615

fc2.bias f4 [64]
000000 ef 9e c0 3d 09 ea 84 3d c6 0a 9f 3e 7a 8d 35 3e
       0.09405314 0.06489951 0.31062907 0.1772975
000010 f6 44 ab 3e fb 30 0c 3e 8c f1 02 3f 5c e6 07 3f
       0.3345105 0.1369056 0.5114982 0.53085876
000020 6c 88 da 3e f4 de 13 be b8 a5 f7 3d d3 6b bf bc
       0.42682207 -0.14440519 0.12092155 -0.023366844
000030 f4 95 d3 3e 45 0e e1 3e da ca 8f bd 13 10 b2 bc
       0.41325343 0.439562 -0.07021113 -0.02173618
000040 fb c2 db 3e ef 67 d8 3e a0 30 87 3d 9c d8 a1 3e
       0.42922196 0.42266795 0.06601071 0.31610572
000050 0d 30 eb 3e 7e 1a 02 3f 45 64 64 bd de 60 c1 bd
       0.45935097 0.50821674 -0.055759687 -0.09442304
000060 af 00 ec 3e 9d 61 0a 3e 7d 3a db bc c9 27 95 3e
       0.46094272 0.13513799 -0.026761288 0.29131916
000070 e0 6a b1 3e d2 4c d4 3e b8 fb 83 3e c6 f7 80 3e
       0.34651852 0.4146486 0.25777984 0.25189036
000080 f3 33 e8 3e 86 78 97 3e fa 1b c8 3e bc e8 2b be
       0.45352134 0.2958414 0.39083844 -0.16788
000090 71 4d b4 3e c1 83 dc 3d 8a ac cc 3e 1a 9d d5 3e
       0.35215333 0.107673176 0.39975387 0.4172142
0000a0 15 ad 51 3d 53 65 e2 bd 5d e7 b9 3e cd a8 5c bd
       0.051190455 -0.11054482 0.3630933 -0.05387192
0000b0 87 7a 4d be 5f be f9 3e 22 83 01 3d 30 2e 32 bc
       -0.20066272 0.48778054 0.0316192 -0.01087527
0000c0 5f 90 e0 bd d6 07 56 3e b0 38 a0 3e ae 25 a5 3d
       -0.109650366 0.20901427 0.3129325 0.080638275
0000d0 b0 1a f0 3e e6 8f b4 3e 1b 5a 44 bd 63 b1 ff 3c
       0.4689536 0.35266036 -0.047937494 0.031212514
0000e0 a7 2b 20 bd a4 e3 8f bd 1c 84 92 3d a5 14 6d 3e
       -0.03910413 -0.07025841 0.07154104 0.23152407
0000f0 bc 39 af 3e ef bb 97 3e 44 b2 09 bd 31 fb b9 bd
       0.34223735 0.2963557 -0.033617273 -0.09081114

fc3.weight f4 [40, 64]
000000 d3 0b c6 3e 14 20 93 3e f5 44 43 3c 11 1e 23 3d
       0.38680896 0.2873541 0.011918296 0.039823595
000010 7c fa 53 3e 02 c7 bf 3e 1d b3 a1 bc 4e 33 58 3e
       0.20701021 0.37456518 -0.019738728 0.21113321
000020 68 26 4d 3e f9 b9 34 3e 11 56 fe 3d 4c 96 30 3d
       0.20034182 0.17649068 0.124187596 0.043112084
000030 3c 33 6d 3e 09 86 3a 3e 62 ee ed 3d cc 75 d6 3d
       0.23164076 0.18215193 0.116177335 0.10471687
000040 e9 a7 7a 3e 13 96 50 3e 7b b3 f8 3e 61 be 27 3f
       0.24478115 0.20369749 0.48574433 0.6552487
000050 c5 84 c1 3e 40 5f e5 3e 48 67 cc bd 98 5c 0b bd
       0.37796608 0.44799232 -0.09980637 -0.03402385
000060 42 eb 80 bc 53 50 2c 3f a8 1a 13 3d cb d2 34 3e
       -0.01573718 0.67310065 0.035914093 0.17658536
000070 31 cf 45 3f 6d d5 a7 3e 8d d6 fb 3e ed bb 8a 3e
       0.77269274 0.32780018 0.49187127 0.270965
000080 d7 69 5c 3e 7a 51 9b bd 24 94 09 3e 68 64 ac bc
       0.2152475 -0.075839 0.13435417 -0.021043971
000090 f3 fa 11 3f 31 5c 49 be 52 32 f0 3e ea 93 16 3e
       0.57023543 -0.19664074 0.4691339 0.14704862
0000a0 2e 64 23 3f e8 7b 96 be e2 15 2e 3d 78 e6 10 3f
       0.6382474 -0.29391408 0.042501338 0.5660167
0000b0 f7 98 9f 3e 83 5f dc 3e f8 15 9f bf 5b 45 33 be
       0.3117139 0.4304162 -1.2428579 -0.17506926
0000c0 58 1d 4e bd 52 f5 33 be b2 3f b3 3e 9d fb f5 3e
       -0.050320953 -0.17574051 0.35009533 0.48043528
0000d0 db 55 ae 3d 0f d9 f2 3d 72 6b be bc e5 b6 54 3e
       0.085124694 0.11857807 -0.023244593 0.20772894
0000e0 d8 56 cd 3e 21 52 92 3d 65 d2 af 3e cb 92 88 3e
       0.4010532 0.07144571 0.34340206 0.26674494
0000f0 39 93 84 3c 1d d4 01 3e b3 31 be 3e 43 ed b0 3d
       0.016183482 0.12678571 0.37147292 0.08639004
000100 2a c1 09 3f d6 44 a7 bd c3 16 e2 3e db 85 c8 bb
       0.5381037 -0.08167426 0.4415799 -0.0061194724
000110 71 79 3b 3e 49 58 16 3e 76 1e 9f bc 78 66 9c 3e
       0.18308045 0.14682116 -0.019423705 0.30546927
000120 64 3f ba 3d 2f 64 6a 3e 19 4f 9c 3e f8 2e 71 3d
       0.09094122 0.2288978 0.30529097 0.058882684
000130 ad 87 9d 3e 72 ca 82 3e e0 ac e5 3b ec 0a a1 3d
       0.30767575 0.2554508 0.0070091337 0.07863411
000140 2b ae c6 3e 70 56 98 3e 48 1c b1 3d c4 2a c8 3e
       0.38804755 0.29753447 0.08647972 0.39095128
000150 45 7b 50 bd b7 7a c3 3e ba a1 8b 3d 98 46 60 bd
       -0.05089881 0.38179561 0.06817956 -0.054754823
000160 1d d4 42 3e 96 46 91 3e c7 fc bf bc 91 80 93 3e
       0.19026227 0.28374165 -0.023435963 0.28809026
000170 5e d3 b8 3e bc 95 93 3e b2 08 a5 3e 09 64 c2 3d
       0.3609876 0.28825176 0.32233196 0.094917364
000180 ff 92 8f 3e a5 5f 6a 3e bf 6e 42 bc 73 a7 54 be
       0.28041837 0.22888048 -0.011867224 -0.20767002
000190 ef df a5 3e ec 05 fa 3e 70 09 46 3d 14 80 86 3e
       0.3239741 0.48832643 0.048348844 0.2626959
0001a0 86 59 c5 3c 96 43 b0 3e e0 b0 22 3d 42 5e 82 be
       0.02409054 0.34426564 0.039719462 -0.25462538
0001b0 02 b5 bb 3e 4c c3 9e 3e c5 66 d2 be d8 0f f6 3e
       0.36661536 0.31008375 -0.41094032 0.48058963
0001c0 ec b1 18 bd 87 d7 ac 3e 82 58 ff 3d cf 6d 39 3c
       -0.037279055 0.33758184 0.124680534 0.011317684
0001d0 d5 92 0e 3e 1c f4 44 3e 92 2f 82 3e 31 21 ad 3e
       0.139232 0.19233745 0.25426918 0.33814386
0001e0 b2 98 24 3e 2f bc f6 3e 41 0a 90 3e f5 ca ff 3e
       0.16073874 0.48190448 0.28132823 0.4995953
0001f0 5e f5 99 3e 84 3f d5 3d 2c 7a 9c 3e 8c 1c 6d bb
       0.30070013 0.10412505 0.3056196 -0.0036180345
000200 e3 88 ac bf b6 3e 6d 3d e5 82 26 3f 7d 4b 07 3f
       -1.3479275 0.057921134 0.6504348 0.5284956
000210 75 44 c1 3e af 34 bb bd 58 08 7c 3e 6f c6 a3 3d
       0.3774754 -0.09140908 0.24612558 0.079968326
000220 70 d9 8b 3e b8 18 c3 3c a7 3b 2e 3e bc 00 ab 3d
       0.2731433 0.023815498 0.17014943 0.083497494
000230 c1 d0 50 3d 5e 06 06 3f e8 e9 06 bd 9e 6b 87 3d
       0.050980333 0.52353466 -0.032937914 0.06612323
000240 02 0a 3b 3e 60 c2 11 3f c6 1c 8e 3e a8 e3 6c 3e
       0.18265536 0.5693722 0.27756327 0.23133719
000250 79 13 84 be 9b e0 6c 3e 88 96 9d bc 0a ad e6 3d
       -0.25796106 0.23132555 -0.019236818 0.11263473
000260 0f f5 ed 3c 18 31 e8 3e da 1a f7 3d f6 25 0a bf
       0.029047517 0.45349956 0.120656684 -0.53964174
000270 ce 5b 12 3e 66 8b 4f bd 49 89 2e be 3a 45 1c 3d
       0.14292833 -0.05067005 -0.17044558 0.038151957
000280 c9 b8 62 3e e6 32 24 3e ef 63 e1 3e 61 bc af 3e
       0.22140802 0.16035041 0.44021556 0.3432341
000290 dc dd cb 3d b1 58 61 bc 40 fd 2f 3d a9 c9 72 3e
       0.09954426 -0.013754056 0.042966127 0.2370974
0002a0 67 30 c9 bd dc c2 a6 bf 1d 2b 15 3f e4 c3 42 3f
       -0.09823685 -1.3028216 0.5826891 0.76080155
0002b0 e5 23 0f 3e 96 20 30 3e ab f9 40 be 20 90 17 be
       0.13978536 0.1719993 -0.18845241 -0.14801073
0002c0 83 38 7c bd e3 34 d2 3e 29 9a 2b 3e c4 c1 90 3e
       -0.06157733 0.41055974 0.16758026 0.2827283
0002d0 74 9e 84 3e 00 da e2 bc 21 bc 41 be b6 70 17 3f
       0.2590214 -0.027691841 -0.18919422 0.5915636
0002e0 67 f5 0f bf ec c2 1d 3e b1 8c 88 3f 0e 2c 41 3f
       -0.5623383 0.15406388 1.0667936 0.7545785
0002f0 fe 37 4b 3f 0b a4 54 3e 04 f2 75 bf b2 7b ca 3d
       0.7938231 0.20765702 -0.9607241 0.09886874
000300 fa 88 18 3d ee 0b 22 bf b3 0f a5 bf f0 ae d8 be
       0.037240006 -0.63299453 -1.2895416 -0.42320967
000310 23 8e f3 3c 1c 40 5b bf af fc 7e bc 97 64 65 3e
       0.029730862 -0.856447 -0.015563174 0.22401653
000320 71 37 d6 3e fc 40 0d 3f 7a d3 29 bf b2 09 e9 3d
       0.41839173 0.55177283 -0.6633831 0.11378802
000330 e6 78 43 3e d3 6c 15 3f 80 ed b1 3a 28 82 d1 bc
       0.19089088 0.5836918 0.0013574809 -0.025574759
000340 0e d1 5a 3d 34 1d 0c 3e 3b 04 92 be 0e 1b d1 be
       0.053422026 0.13683015 -0.28518853 -0.40840954
000350 83 e8 9a 3d f8 a9 12 3f 94 db 0e 3d 20 02 e1 3b
       0.07563879 0.572906 0.034877375 0.0068667084
000360 2e 08 01 3f 48 d3 aa 3e d8 e1 62 3d 96 8f 8d 3f
       0.50403106 0.3336432 0.055391163 1.1059444
000370 ef 8d c5 3e d8 9c d0 3e e9 f6 7c 3f cf 73 d3 3e
       0.3858485 0.40744662 0.98814255 0.41299292
000380 1c a5 b1 3e 8d 52 a5 3e 6d 36 d4 3e ee a5 01 be
       0.3469628 0.32289544 0.41447774 -0.12660953
000390 fe eb fc bf 00 b4 68 3f 6e 5c 1e 3d 2e f4 1d 3d
       -1.9759519 0.9089966 0.038662367 0.038562946
0003a0 1c dd 3f 3f cf d8 ce 3e 46 54 37 3e 1b 82 34 bf
       0.7494676 0.40399787 0.17903242 -0.70511025
0003b0 5a 03 b6 3d 62 99 07 3e 0b 1a 1d 3f 2c 95 61 be
       0.08887358 0.13242105 0.61367863 -0.22029561
0003c0 a4 78 66 bd ec de a0 3f 55 c7 9a 3e 3b 71 ea 3e
       -0.056267396 1.256803 0.30230203 0.45789513
0003d0 37 c9 5b 3e 3f 2f 6e 3e a2 d0 84 bf 48 ed 45 bf
       0.21463476 0.2326021 -1.037617 -0.7731519
0003e0 0f b6 57 bf 05 d4 f8 3e f0 61 2a bf b9 33 0d 3f
       -0.84262174 0.48599258 -0.6655569 0.5515705
0003f0 ce 63 22 3f 30 2e 8c 3e 37 f9 16 3f 32 42 69 3d
       0.6343354 0.27378988 0.5897402 0.056947894

fc3.bias f4 [40]
000000 d3 5c bc 3e 80 d5 cd 3e ed 16 66 3e 53 37 67 3d
       0.3678957 0.4020195 0.22469683 0.056449246
000010 2c b7 8a be 76 7a b3 bc b4 82 0a bb b3 23 16 3e
       -0.27092874 -0.02190898 -0.0021135034 0.14662056
000020 30 a7 37 3e d7 a0 4f 3d d9 fa 22 3e 6d 42 d2 3e
       0.1793487 0.0506905 0.15916003 0.41066304
000030 91 82 b8 3e 61 0a cc 3e d9 39 ee 3e 5d 90 99 3e
       0.36037114 0.39851668 0.4652851 0.29992953
000040 76 cd 25 3e e8 c0 03 3e a7 fb 06 3f bc 5d 0f 3b
       0.16191658 0.12866557 0.5272774 0.0021875938
000050 a6 39 c0 3e e8 bf d8 3e 59 b3 fe 3e ec 23 1d 3f
       0.37543982 0.42333913 0.49746206 0.6138294
000060 36 99 01 3f 21 f6 92 3e 10 c3 6e 3d 18 69 5a 3e
       0.50624406 0.28703406 0.058291495 0.21329153
000070 76 c2 81 3d 5a f6 80 3e e4 f8 97 bd 85 fb 4b 3e
       0.063359186 0.2518795 -0.07420519 0.19920166
000080 57 6a b2 3e 33 eb 81 be f0 20 3f 3e c7 6c c1 3d
       0.34846756 -0.25374755 0.18664908 0.09444576
000090 d9 75 7b 3c 8c a8 8d 3f 17 d6 2c 3e 39 f8 61 3e
       0.015347921 1.1067061 0.16878544 0.22067346
